{"format": "layers-model", "generatedBy": "keras v2.3.0-tf", "convertedBy": "TensorFlow.js Converter v2.0.1", "modelTopology": {"keras_version": "2.3.0-tf", "backend": "tensorflow", "model_config": {"class_name": "Model", "config": {"name": "model", "layers": [{"class_name": "InputLayer", "config": {"batch_input_shape": [null, 150, 150, 3], "dtype": "float32", "sparse": false, "ragged": false, "name": "input_1"}, "name": "input_1", "inbound_nodes": []}, {"class_name": "Conv2D", "config": {"name": "stem_conv", "trainable": false, "dtype": "float32", "filters": 40, "kernel_size": [3, 3], "strides": [2, 2], "padding": "same", "data_format": "channels_last", "dilation_rate": [1, 1], "activation": "linear", "use_bias": false, "kernel_initializer": {"class_name": "VarianceScaling", "config": {"scale": 2.0, "mode": "fan_out", "distribution": "truncated_normal", "seed": null}}, "bias_initializer": {"class_name": "Zeros", "config": {}}, "kernel_regularizer": null, "bias_regularizer": null, "activity_regularizer": null, "kernel_constraint": null, "bias_constraint": null}, "name": "stem_conv", "inbound_nodes": [[["input_1", 0, 0, {}]]]}, {"class_name": "BatchNormalization", "config": {"name": "stem_bn", "trainable": false, "dtype": "float32", "axis": [3], "momentum": 0.99, "epsilon": 0.001, "center": true, "scale": true, "beta_initializer": {"class_name": "Zeros", "config": {}}, "gamma_initializer": {"class_name": "Ones", "config": {}}, "moving_mean_initializer": {"class_name": "Zeros", "config": {}}, "moving_variance_initializer": {"class_name": "Ones", "config": {}}, "beta_regularizer": null, "gamma_regularizer": null, "beta_constraint": null, "gamma_constraint": null}, "name": "stem_bn", "inbound_nodes": [[["stem_conv", 0, 0, {}]]]}, {"class_name": "Activation", "config": {"name": "stem_activation", "trainable": false, "dtype": "float32", "activation": "swish"}, "name": "stem_activation", "inbound_nodes": [[["stem_bn", 0, 0, {}]]]}, {"class_name": "DepthwiseConv2D", "config": {"name": "block1a_dwconv", "trainable": false, "dtype": "float32", "kernel_size": [3, 3], "strides": [1, 1], "padding": "same", "data_format": "channels_last", "dilation_rate": [1, 1], "activation": "linear", "use_bias": false, "bias_initializer": {"class_name": "Zeros", "config": {}}, "bias_regularizer": null, "activity_regularizer": null, "bias_constraint": null, "depth_multiplier": 1, "depthwise_initializer": {"class_name": "VarianceScaling", "config": {"scale": 2.0, "mode": "fan_out", "distribution": "truncated_normal", "seed": null}}, "depthwise_regularizer": null, "depthwise_constraint": null}, "name": "block1a_dwconv", "inbound_nodes": [[["stem_activation", 0, 0, {}]]]}, {"class_name": "BatchNormalization", "config": {"name": "block1a_bn", "trainable": false, "dtype": "float32", "axis": [3], "momentum": 0.99, "epsilon": 0.001, "center": true, "scale": true, "beta_initializer": {"class_name": "Zeros", "config": {}}, "gamma_initializer": {"class_name": "Ones", "config": {}}, "moving_mean_initializer": {"class_name": "Zeros", "config": {}}, "moving_variance_initializer": {"class_name": "Ones", "config": {}}, "beta_regularizer": null, "gamma_regularizer": null, "beta_constraint": null, "gamma_constraint": null}, "name": "block1a_bn", "inbound_nodes": [[["block1a_dwconv", 0, 0, {}]]]}, {"class_name": "Activation", "config": {"name": "block1a_activation", "trainable": false, "dtype": "float32", "activation": "swish"}, "name": "block1a_activation", "inbound_nodes": [[["block1a_bn", 0, 0, {}]]]}, {"class_name": "GlobalAveragePooling2D", "config": {"name": "block1a_se_squeeze", "trainable": false, "dtype": "float32", "data_format": "channels_last"}, "name": "block1a_se_squeeze", "inbound_nodes": [[["block1a_activation", 0, 0, {}]]]}, {"class_name": "Reshape", "config": {"name": "block1a_se_reshape", "trainable": false, "dtype": "float32", "target_shape": [1, 1, 40]}, "name": "block1a_se_reshape", "inbound_nodes": [[["block1a_se_squeeze", 0, 0, {}]]]}, {"class_name": "Conv2D", "config": {"name": "block1a_se_reduce", "trainable": false, "dtype": "float32", "filters": 10, "kernel_size": [1, 1], "strides": [1, 1], "padding": "same", "data_format": "channels_last", "dilation_rate": [1, 1], "activation": "swish", "use_bias": true, "kernel_initializer": {"class_name": "VarianceScaling", "config": {"scale": 2.0, "mode": "fan_out", "distribution": "truncated_normal", "seed": null}}, "bias_initializer": {"class_name": "Zeros", "config": {}}, "kernel_regularizer": null, "bias_regularizer": null, "activity_regularizer": null, "kernel_constraint": null, "bias_constraint": null}, "name": "block1a_se_reduce", "inbound_nodes": [[["block1a_se_reshape", 0, 0, {}]]]}, {"class_name": "Conv2D", "config": {"name": "block1a_se_expand", "trainable": false, "dtype": "float32", "filters": 40, "kernel_size": [1, 1], "strides": [1, 1], "padding": "same", "data_format": "channels_last", "dilation_rate": [1, 1], "activation": "sigmoid", "use_bias": true, "kernel_initializer": {"class_name": "VarianceScaling", "config": {"scale": 2.0, "mode": "fan_out", "distribution": "truncated_normal", "seed": null}}, "bias_initializer": {"class_name": "Zeros", "config": {}}, "kernel_regularizer": null, "bias_regularizer": null, "activity_regularizer": null, "kernel_constraint": null, "bias_constraint": null}, "name": "block1a_se_expand", "inbound_nodes": [[["block1a_se_reduce", 0, 0, {}]]]}, {"class_name": "Multiply", "config": {"name": "block1a_se_excite", "trainable": false, "dtype": "float32"}, "name": "block1a_se_excite", "inbound_nodes": [[["block1a_activation", 0, 0, {}], ["block1a_se_expand", 0, 0, {}]]]}, {"class_name": "Conv2D", "config": {"name": "block1a_project_conv", "trainable": false, "dtype": "float32", "filters": 24, "kernel_size": [1, 1], "strides": [1, 1], "padding": "same", "data_format": "channels_last", "dilation_rate": [1, 1], "activation": "linear", "use_bias": false, "kernel_initializer": {"class_name": "VarianceScaling", "config": {"scale": 2.0, "mode": "fan_out", "distribution": "truncated_normal", "seed": null}}, "bias_initializer": {"class_name": "Zeros", "config": {}}, "kernel_regularizer": null, "bias_regularizer": null, "activity_regularizer": null, "kernel_constraint": null, "bias_constraint": null}, "name": "block1a_project_conv", "inbound_nodes": [[["block1a_se_excite", 0, 0, {}]]]}, {"class_name": "BatchNormalization", "config": {"name": "block1a_project_bn", "trainable": false, "dtype": "float32", "axis": [3], "momentum": 0.99, "epsilon": 0.001, "center": true, "scale": true, "beta_initializer": {"class_name": "Zeros", "config": {}}, "gamma_initializer": {"class_name": "Ones", "config": {}}, "moving_mean_initializer": {"class_name": "Zeros", "config": {}}, "moving_variance_initializer": {"class_name": "Ones", "config": {}}, "beta_regularizer": null, "gamma_regularizer": null, "beta_constraint": null, "gamma_constraint": null}, "name": "block1a_project_bn", "inbound_nodes": [[["block1a_project_conv", 0, 0, {}]]]}, {"class_name": "DepthwiseConv2D", "config": {"name": "block1b_dwconv", "trainable": false, "dtype": "float32", "kernel_size": [3, 3], "strides": [1, 1], "padding": "same", "data_format": "channels_last", "dilation_rate": [1, 1], "activation": "linear", "use_bias": false, "bias_initializer": {"class_name": "Zeros", "config": {}}, "bias_regularizer": null, "activity_regularizer": null, "bias_constraint": null, "depth_multiplier": 1, "depthwise_initializer": {"class_name": "VarianceScaling", "config": {"scale": 2.0, "mode": "fan_out", "distribution": "truncated_normal", "seed": null}}, "depthwise_regularizer": null, "depthwise_constraint": null}, "name": "block1b_dwconv", "inbound_nodes": [[["block1a_project_bn", 0, 0, {}]]]}, {"class_name": "BatchNormalization", "config": {"name": "block1b_bn", "trainable": false, "dtype": "float32", "axis": [3], "momentum": 0.99, "epsilon": 0.001, "center": true, "scale": true, "beta_initializer": {"class_name": "Zeros", "config": {}}, "gamma_initializer": {"class_name": "Ones", "config": {}}, "moving_mean_initializer": {"class_name": "Zeros", "config": {}}, "moving_variance_initializer": {"class_name": "Ones", "config": {}}, "beta_regularizer": null, "gamma_regularizer": null, "beta_constraint": null, "gamma_constraint": null}, "name": "block1b_bn", "inbound_nodes": [[["block1b_dwconv", 0, 0, {}]]]}, {"class_name": "Activation", "config": {"name": "block1b_activation", "trainable": false, "dtype": "float32", "activation": "swish"}, "name": "block1b_activation", "inbound_nodes": [[["block1b_bn", 0, 0, {}]]]}, {"class_name": "GlobalAveragePooling2D", "config": {"name": "block1b_se_squeeze", "trainable": false, "dtype": "float32", "data_format": "channels_last"}, "name": "block1b_se_squeeze", "inbound_nodes": [[["block1b_activation", 0, 0, {}]]]}, {"class_name": "Reshape", "config": {"name": "block1b_se_reshape", "trainable": false, "dtype": "float32", "target_shape": [1, 1, 24]}, "name": "block1b_se_reshape", "inbound_nodes": [[["block1b_se_squeeze", 0, 0, {}]]]}, {"class_name": "Conv2D", "config": {"name": "block1b_se_reduce", "trainable": false, "dtype": "float32", "filters": 6, "kernel_size": [1, 1], "strides": [1, 1], "padding": "same", "data_format": "channels_last", "dilation_rate": [1, 1], "activation": "swish", "use_bias": true, "kernel_initializer": {"class_name": "VarianceScaling", "config": {"scale": 2.0, "mode": "fan_out", "distribution": "truncated_normal", "seed": null}}, "bias_initializer": {"class_name": "Zeros", "config": {}}, "kernel_regularizer": null, "bias_regularizer": null, "activity_regularizer": null, "kernel_constraint": null, "bias_constraint": null}, "name": "block1b_se_reduce", "inbound_nodes": [[["block1b_se_reshape", 0, 0, {}]]]}, {"class_name": "Conv2D", "config": {"name": "block1b_se_expand", "trainable": false, "dtype": "float32", "filters": 24, "kernel_size": [1, 1], "strides": [1, 1], "padding": "same", "data_format": "channels_last", "dilation_rate": [1, 1], "activation": "sigmoid", "use_bias": true, "kernel_initializer": {"class_name": "VarianceScaling", "config": {"scale": 2.0, "mode": "fan_out", "distribution": "truncated_normal", "seed": null}}, "bias_initializer": {"class_name": "Zeros", "config": {}}, "kernel_regularizer": null, "bias_regularizer": null, "activity_regularizer": null, "kernel_constraint": null, "bias_constraint": null}, "name": "block1b_se_expand", "inbound_nodes": [[["block1b_se_reduce", 0, 0, {}]]]}, {"class_name": "Multiply", "config": {"name": "block1b_se_excite", "trainable": false, "dtype": "float32"}, "name": "block1b_se_excite", "inbound_nodes": [[["block1b_activation", 0, 0, {}], ["block1b_se_expand", 0, 0, {}]]]}, {"class_name": "Conv2D", "config": {"name": "block1b_project_conv", "trainable": false, "dtype": "float32", "filters": 24, "kernel_size": [1, 1], "strides": [1, 1], "padding": "same", "data_format": "channels_last", "dilation_rate": [1, 1], "activation": "linear", "use_bias": false, "kernel_initializer": {"class_name": "VarianceScaling", "config": {"scale": 2.0, "mode": "fan_out", "distribution": "truncated_normal", "seed": null}}, "bias_initializer": {"class_name": "Zeros", "config": {}}, "kernel_regularizer": null, "bias_regularizer": null, "activity_regularizer": null, "kernel_constraint": null, "bias_constraint": null}, "name": "block1b_project_conv", "inbound_nodes": [[["block1b_se_excite", 0, 0, {}]]]}, {"class_name": "BatchNormalization", "config": {"name": "block1b_project_bn", "trainable": false, "dtype": "float32", "axis": [3], "momentum": 0.99, "epsilon": 0.001, "center": true, "scale": true, "beta_initializer": {"class_name": "Zeros", "config": {}}, "gamma_initializer": {"class_name": "Ones", "config": {}}, "moving_mean_initializer": {"class_name": "Zeros", "config": {}}, "moving_variance_initializer": {"class_name": "Ones", "config": {}}, "beta_regularizer": null, "gamma_regularizer": null, "beta_constraint": null, "gamma_constraint": null}, "name": "block1b_project_bn", "inbound_nodes": [[["block1b_project_conv", 0, 0, {}]]]}, {"class_name": "FixedDropout", "config": {"name": "block1b_drop", "trainable": false, "dtype": "float32", "rate": 0.0125, "noise_shape": [null, 1, 1, 1], "seed": null}, "name": "block1b_drop", "inbound_nodes": [[["block1b_project_bn", 0, 0, {}]]]}, {"class_name": "Add", "config": {"name": "block1b_add", "trainable": false, "dtype": "float32"}, "name": "block1b_add", "inbound_nodes": [[["block1b_drop", 0, 0, {}], ["block1a_project_bn", 0, 0, {}]]]}, {"class_name": "Conv2D", "config": {"name": "block2a_expand_conv", "trainable": false, "dtype": "float32", "filters": 144, "kernel_size": [1, 1], "strides": [1, 1], "padding": "same", "data_format": "channels_last", "dilation_rate": [1, 1], "activation": "linear", "use_bias": false, "kernel_initializer": {"class_name": "VarianceScaling", "config": {"scale": 2.0, "mode": "fan_out", "distribution": "truncated_normal", "seed": null}}, "bias_initializer": {"class_name": "Zeros", "config": {}}, "kernel_regularizer": null, "bias_regularizer": null, "activity_regularizer": null, "kernel_constraint": null, "bias_constraint": null}, "name": "block2a_expand_conv", "inbound_nodes": [[["block1b_add", 0, 0, {}]]]}, {"class_name": "BatchNormalization", "config": {"name": "block2a_expand_bn", "trainable": false, "dtype": "float32", "axis": [3], "momentum": 0.99, "epsilon": 0.001, "center": true, "scale": true, "beta_initializer": {"class_name": "Zeros", "config": {}}, "gamma_initializer": {"class_name": "Ones", "config": {}}, "moving_mean_initializer": {"class_name": "Zeros", "config": {}}, "moving_variance_initializer": {"class_name": "Ones", "config": {}}, "beta_regularizer": null, "gamma_regularizer": null, "beta_constraint": null, "gamma_constraint": null}, "name": "block2a_expand_bn", "inbound_nodes": [[["block2a_expand_conv", 0, 0, {}]]]}, {"class_name": "Activation", "config": {"name": "block2a_expand_activation", "trainable": false, "dtype": "float32", "activation": "swish"}, "name": "block2a_expand_activation", "inbound_nodes": [[["block2a_expand_bn", 0, 0, {}]]]}, {"class_name": "DepthwiseConv2D", "config": {"name": "block2a_dwconv", "trainable": false, "dtype": "float32", "kernel_size": [3, 3], "strides": [2, 2], "padding": "same", "data_format": "channels_last", "dilation_rate": [1, 1], "activation": "linear", "use_bias": false, "bias_initializer": {"class_name": "Zeros", "config": {}}, "bias_regularizer": null, "activity_regularizer": null, "bias_constraint": null, "depth_multiplier": 1, "depthwise_initializer": {"class_name": "VarianceScaling", "config": {"scale": 2.0, "mode": "fan_out", "distribution": "truncated_normal", "seed": null}}, "depthwise_regularizer": null, "depthwise_constraint": null}, "name": "block2a_dwconv", "inbound_nodes": [[["block2a_expand_activation", 0, 0, {}]]]}, {"class_name": "BatchNormalization", "config": {"name": "block2a_bn", "trainable": false, "dtype": "float32", "axis": [3], "momentum": 0.99, "epsilon": 0.001, "center": true, "scale": true, "beta_initializer": {"class_name": "Zeros", "config": {}}, "gamma_initializer": {"class_name": "Ones", "config": {}}, "moving_mean_initializer": {"class_name": "Zeros", "config": {}}, "moving_variance_initializer": {"class_name": "Ones", "config": {}}, "beta_regularizer": null, "gamma_regularizer": null, "beta_constraint": null, "gamma_constraint": null}, "name": "block2a_bn", "inbound_nodes": [[["block2a_dwconv", 0, 0, {}]]]}, {"class_name": "Activation", "config": {"name": "block2a_activation", "trainable": false, "dtype": "float32", "activation": "swish"}, "name": "block2a_activation", "inbound_nodes": [[["block2a_bn", 0, 0, {}]]]}, {"class_name": "GlobalAveragePooling2D", "config": {"name": "block2a_se_squeeze", "trainable": false, "dtype": "float32", "data_format": "channels_last"}, "name": "block2a_se_squeeze", "inbound_nodes": [[["block2a_activation", 0, 0, {}]]]}, {"class_name": "Reshape", "config": {"name": "block2a_se_reshape", "trainable": false, "dtype": "float32", "target_shape": [1, 1, 144]}, "name": "block2a_se_reshape", "inbound_nodes": [[["block2a_se_squeeze", 0, 0, {}]]]}, {"class_name": "Conv2D", "config": {"name": "block2a_se_reduce", "trainable": false, "dtype": "float32", "filters": 6, "kernel_size": [1, 1], "strides": [1, 1], "padding": "same", "data_format": "channels_last", "dilation_rate": [1, 1], "activation": "swish", "use_bias": true, "kernel_initializer": {"class_name": "VarianceScaling", "config": {"scale": 2.0, "mode": "fan_out", "distribution": "truncated_normal", "seed": null}}, "bias_initializer": {"class_name": "Zeros", "config": {}}, "kernel_regularizer": null, "bias_regularizer": null, "activity_regularizer": null, "kernel_constraint": null, "bias_constraint": null}, "name": "block2a_se_reduce", "inbound_nodes": [[["block2a_se_reshape", 0, 0, {}]]]}, {"class_name": "Conv2D", "config": {"name": "block2a_se_expand", "trainable": false, "dtype": "float32", "filters": 144, "kernel_size": [1, 1], "strides": [1, 1], "padding": "same", "data_format": "channels_last", "dilation_rate": [1, 1], "activation": "sigmoid", "use_bias": true, "kernel_initializer": {"class_name": "VarianceScaling", "config": {"scale": 2.0, "mode": "fan_out", "distribution": "truncated_normal", "seed": null}}, "bias_initializer": {"class_name": "Zeros", "config": {}}, "kernel_regularizer": null, "bias_regularizer": null, "activity_regularizer": null, "kernel_constraint": null, "bias_constraint": null}, "name": "block2a_se_expand", "inbound_nodes": [[["block2a_se_reduce", 0, 0, {}]]]}, {"class_name": "Multiply", "config": {"name": "block2a_se_excite", "trainable": false, "dtype": "float32"}, "name": "block2a_se_excite", "inbound_nodes": [[["block2a_activation", 0, 0, {}], ["block2a_se_expand", 0, 0, {}]]]}, {"class_name": "Conv2D", "config": {"name": "block2a_project_conv", "trainable": false, "dtype": "float32", "filters": 32, "kernel_size": [1, 1], "strides": [1, 1], "padding": "same", "data_format": "channels_last", "dilation_rate": [1, 1], "activation": "linear", "use_bias": false, "kernel_initializer": {"class_name": "VarianceScaling", "config": {"scale": 2.0, "mode": "fan_out", "distribution": "truncated_normal", "seed": null}}, "bias_initializer": {"class_name": "Zeros", "config": {}}, "kernel_regularizer": null, "bias_regularizer": null, "activity_regularizer": null, "kernel_constraint": null, "bias_constraint": null}, "name": "block2a_project_conv", "inbound_nodes": [[["block2a_se_excite", 0, 0, {}]]]}, {"class_name": "BatchNormalization", "config": {"name": "block2a_project_bn", "trainable": false, "dtype": "float32", "axis": [3], "momentum": 0.99, "epsilon": 0.001, "center": true, "scale": true, "beta_initializer": {"class_name": "Zeros", "config": {}}, "gamma_initializer": {"class_name": "Ones", "config": {}}, "moving_mean_initializer": {"class_name": "Zeros", "config": {}}, "moving_variance_initializer": {"class_name": "Ones", "config": {}}, "beta_regularizer": null, "gamma_regularizer": null, "beta_constraint": null, "gamma_constraint": null}, "name": "block2a_project_bn", "inbound_nodes": [[["block2a_project_conv", 0, 0, {}]]]}, {"class_name": "Conv2D", "config": {"name": "block2b_expand_conv", "trainable": false, "dtype": "float32", "filters": 192, "kernel_size": [1, 1], "strides": [1, 1], "padding": "same", "data_format": "channels_last", "dilation_rate": [1, 1], "activation": "linear", "use_bias": false, "kernel_initializer": {"class_name": "VarianceScaling", "config": {"scale": 2.0, "mode": "fan_out", "distribution": "truncated_normal", "seed": null}}, "bias_initializer": {"class_name": "Zeros", "config": {}}, "kernel_regularizer": null, "bias_regularizer": null, "activity_regularizer": null, "kernel_constraint": null, "bias_constraint": null}, "name": "block2b_expand_conv", "inbound_nodes": [[["block2a_project_bn", 0, 0, {}]]]}, {"class_name": "BatchNormalization", "config": {"name": "block2b_expand_bn", "trainable": false, "dtype": "float32", "axis": [3], "momentum": 0.99, "epsilon": 0.001, "center": true, "scale": true, "beta_initializer": {"class_name": "Zeros", "config": {}}, "gamma_initializer": {"class_name": "Ones", "config": {}}, "moving_mean_initializer": {"class_name": "Zeros", "config": {}}, "moving_variance_initializer": {"class_name": "Ones", "config": {}}, "beta_regularizer": null, "gamma_regularizer": null, "beta_constraint": null, "gamma_constraint": null}, "name": "block2b_expand_bn", "inbound_nodes": [[["block2b_expand_conv", 0, 0, {}]]]}, {"class_name": "Activation", "config": {"name": "block2b_expand_activation", "trainable": false, "dtype": "float32", "activation": "swish"}, "name": "block2b_expand_activation", "inbound_nodes": [[["block2b_expand_bn", 0, 0, {}]]]}, {"class_name": "DepthwiseConv2D", "config": {"name": "block2b_dwconv", "trainable": false, "dtype": "float32", "kernel_size": [3, 3], "strides": [1, 1], "padding": "same", "data_format": "channels_last", "dilation_rate": [1, 1], "activation": "linear", "use_bias": false, "bias_initializer": {"class_name": "Zeros", "config": {}}, "bias_regularizer": null, "activity_regularizer": null, "bias_constraint": null, "depth_multiplier": 1, "depthwise_initializer": {"class_name": "VarianceScaling", "config": {"scale": 2.0, "mode": "fan_out", "distribution": "truncated_normal", "seed": null}}, "depthwise_regularizer": null, "depthwise_constraint": null}, "name": "block2b_dwconv", "inbound_nodes": [[["block2b_expand_activation", 0, 0, {}]]]}, {"class_name": "BatchNormalization", "config": {"name": "block2b_bn", "trainable": false, "dtype": "float32", "axis": [3], "momentum": 0.99, "epsilon": 0.001, "center": true, "scale": true, "beta_initializer": {"class_name": "Zeros", "config": {}}, "gamma_initializer": {"class_name": "Ones", "config": {}}, "moving_mean_initializer": {"class_name": "Zeros", "config": {}}, "moving_variance_initializer": {"class_name": "Ones", "config": {}}, "beta_regularizer": null, "gamma_regularizer": null, "beta_constraint": null, "gamma_constraint": null}, "name": "block2b_bn", "inbound_nodes": [[["block2b_dwconv", 0, 0, {}]]]}, {"class_name": "Activation", "config": {"name": "block2b_activation", "trainable": false, "dtype": "float32", "activation": "swish"}, "name": "block2b_activation", "inbound_nodes": [[["block2b_bn", 0, 0, {}]]]}, {"class_name": "GlobalAveragePooling2D", "config": {"name": "block2b_se_squeeze", "trainable": false, "dtype": "float32", "data_format": "channels_last"}, "name": "block2b_se_squeeze", "inbound_nodes": [[["block2b_activation", 0, 0, {}]]]}, {"class_name": "Reshape", "config": {"name": "block2b_se_reshape", "trainable": false, "dtype": "float32", "target_shape": [1, 1, 192]}, "name": "block2b_se_reshape", "inbound_nodes": [[["block2b_se_squeeze", 0, 0, {}]]]}, {"class_name": "Conv2D", "config": {"name": "block2b_se_reduce", "trainable": false, "dtype": "float32", "filters": 8, "kernel_size": [1, 1], "strides": [1, 1], "padding": "same", "data_format": "channels_last", "dilation_rate": [1, 1], "activation": "swish", "use_bias": true, "kernel_initializer": {"class_name": "VarianceScaling", "config": {"scale": 2.0, "mode": "fan_out", "distribution": "truncated_normal", "seed": null}}, "bias_initializer": {"class_name": "Zeros", "config": {}}, "kernel_regularizer": null, "bias_regularizer": null, "activity_regularizer": null, "kernel_constraint": null, "bias_constraint": null}, "name": "block2b_se_reduce", "inbound_nodes": [[["block2b_se_reshape", 0, 0, {}]]]}, {"class_name": "Conv2D", "config": {"name": "block2b_se_expand", "trainable": false, "dtype": "float32", "filters": 192, "kernel_size": [1, 1], "strides": [1, 1], "padding": "same", "data_format": "channels_last", "dilation_rate": [1, 1], "activation": "sigmoid", "use_bias": true, "kernel_initializer": {"class_name": "VarianceScaling", "config": {"scale": 2.0, "mode": "fan_out", "distribution": "truncated_normal", "seed": null}}, "bias_initializer": {"class_name": "Zeros", "config": {}}, "kernel_regularizer": null, "bias_regularizer": null, "activity_regularizer": null, "kernel_constraint": null, "bias_constraint": null}, "name": "block2b_se_expand", "inbound_nodes": [[["block2b_se_reduce", 0, 0, {}]]]}, {"class_name": "Multiply", "config": {"name": "block2b_se_excite", "trainable": false, "dtype": "float32"}, "name": "block2b_se_excite", "inbound_nodes": [[["block2b_activation", 0, 0, {}], ["block2b_se_expand", 0, 0, {}]]]}, {"class_name": "Conv2D", "config": {"name": "block2b_project_conv", "trainable": false, "dtype": "float32", "filters": 32, "kernel_size": [1, 1], "strides": [1, 1], "padding": "same", "data_format": "channels_last", "dilation_rate": [1, 1], "activation": "linear", "use_bias": false, "kernel_initializer": {"class_name": "VarianceScaling", "config": {"scale": 2.0, "mode": "fan_out", "distribution": "truncated_normal", "seed": null}}, "bias_initializer": {"class_name": "Zeros", "config": {}}, "kernel_regularizer": null, "bias_regularizer": null, "activity_regularizer": null, "kernel_constraint": null, "bias_constraint": null}, "name": "block2b_project_conv", "inbound_nodes": [[["block2b_se_excite", 0, 0, {}]]]}, {"class_name": "BatchNormalization", "config": {"name": "block2b_project_bn", "trainable": false, "dtype": "float32", "axis": [3], "momentum": 0.99, "epsilon": 0.001, "center": true, "scale": true, "beta_initializer": {"class_name": "Zeros", "config": {}}, "gamma_initializer": {"class_name": "Ones", "config": {}}, "moving_mean_initializer": {"class_name": "Zeros", "config": {}}, "moving_variance_initializer": {"class_name": "Ones", "config": {}}, "beta_regularizer": null, "gamma_regularizer": null, "beta_constraint": null, "gamma_constraint": null}, "name": "block2b_project_bn", "inbound_nodes": [[["block2b_project_conv", 0, 0, {}]]]}, {"class_name": "FixedDropout", "config": {"name": "block2b_drop", "trainable": false, "dtype": "float32", "rate": 0.037500000000000006, "noise_shape": [null, 1, 1, 1], "seed": null}, "name": "block2b_drop", "inbound_nodes": [[["block2b_project_bn", 0, 0, {}]]]}, {"class_name": "Add", "config": {"name": "block2b_add", "trainable": false, "dtype": "float32"}, "name": "block2b_add", "inbound_nodes": [[["block2b_drop", 0, 0, {}], ["block2a_project_bn", 0, 0, {}]]]}, {"class_name": "Conv2D", "config": {"name": "block2c_expand_conv", "trainable": false, "dtype": "float32", "filters": 192, "kernel_size": [1, 1], "strides": [1, 1], "padding": "same", "data_format": "channels_last", "dilation_rate": [1, 1], "activation": "linear", "use_bias": false, "kernel_initializer": {"class_name": "VarianceScaling", "config": {"scale": 2.0, "mode": "fan_out", "distribution": "truncated_normal", "seed": null}}, "bias_initializer": {"class_name": "Zeros", "config": {}}, "kernel_regularizer": null, "bias_regularizer": null, "activity_regularizer": null, "kernel_constraint": null, "bias_constraint": null}, "name": "block2c_expand_conv", "inbound_nodes": [[["block2b_add", 0, 0, {}]]]}, {"class_name": "BatchNormalization", "config": {"name": "block2c_expand_bn", "trainable": false, "dtype": "float32", "axis": [3], "momentum": 0.99, "epsilon": 0.001, "center": true, "scale": true, "beta_initializer": {"class_name": "Zeros", "config": {}}, "gamma_initializer": {"class_name": "Ones", "config": {}}, "moving_mean_initializer": {"class_name": "Zeros", "config": {}}, "moving_variance_initializer": {"class_name": "Ones", "config": {}}, "beta_regularizer": null, "gamma_regularizer": null, "beta_constraint": null, "gamma_constraint": null}, "name": "block2c_expand_bn", "inbound_nodes": [[["block2c_expand_conv", 0, 0, {}]]]}, {"class_name": "Activation", "config": {"name": "block2c_expand_activation", "trainable": false, "dtype": "float32", "activation": "swish"}, "name": "block2c_expand_activation", "inbound_nodes": [[["block2c_expand_bn", 0, 0, {}]]]}, {"class_name": "DepthwiseConv2D", "config": {"name": "block2c_dwconv", "trainable": false, "dtype": "float32", "kernel_size": [3, 3], "strides": [1, 1], "padding": "same", "data_format": "channels_last", "dilation_rate": [1, 1], "activation": "linear", "use_bias": false, "bias_initializer": {"class_name": "Zeros", "config": {}}, "bias_regularizer": null, "activity_regularizer": null, "bias_constraint": null, "depth_multiplier": 1, "depthwise_initializer": {"class_name": "VarianceScaling", "config": {"scale": 2.0, "mode": "fan_out", "distribution": "truncated_normal", "seed": null}}, "depthwise_regularizer": null, "depthwise_constraint": null}, "name": "block2c_dwconv", "inbound_nodes": [[["block2c_expand_activation", 0, 0, {}]]]}, {"class_name": "BatchNormalization", "config": {"name": "block2c_bn", "trainable": false, "dtype": "float32", "axis": [3], "momentum": 0.99, "epsilon": 0.001, "center": true, "scale": true, "beta_initializer": {"class_name": "Zeros", "config": {}}, "gamma_initializer": {"class_name": "Ones", "config": {}}, "moving_mean_initializer": {"class_name": "Zeros", "config": {}}, "moving_variance_initializer": {"class_name": "Ones", "config": {}}, "beta_regularizer": null, "gamma_regularizer": null, "beta_constraint": null, "gamma_constraint": null}, "name": "block2c_bn", "inbound_nodes": [[["block2c_dwconv", 0, 0, {}]]]}, {"class_name": "Activation", "config": {"name": "block2c_activation", "trainable": false, "dtype": "float32", "activation": "swish"}, "name": "block2c_activation", "inbound_nodes": [[["block2c_bn", 0, 0, {}]]]}, {"class_name": "GlobalAveragePooling2D", "config": {"name": "block2c_se_squeeze", "trainable": false, "dtype": "float32", "data_format": "channels_last"}, "name": "block2c_se_squeeze", "inbound_nodes": [[["block2c_activation", 0, 0, {}]]]}, {"class_name": "Reshape", "config": {"name": "block2c_se_reshape", "trainable": false, "dtype": "float32", "target_shape": [1, 1, 192]}, "name": "block2c_se_reshape", "inbound_nodes": [[["block2c_se_squeeze", 0, 0, {}]]]}, {"class_name": "Conv2D", "config": {"name": "block2c_se_reduce", "trainable": false, "dtype": "float32", "filters": 8, "kernel_size": [1, 1], "strides": [1, 1], "padding": "same", "data_format": "channels_last", "dilation_rate": [1, 1], "activation": "swish", "use_bias": true, "kernel_initializer": {"class_name": "VarianceScaling", "config": {"scale": 2.0, "mode": "fan_out", "distribution": "truncated_normal", "seed": null}}, "bias_initializer": {"class_name": "Zeros", "config": {}}, "kernel_regularizer": null, "bias_regularizer": null, "activity_regularizer": null, "kernel_constraint": null, "bias_constraint": null}, "name": "block2c_se_reduce", "inbound_nodes": [[["block2c_se_reshape", 0, 0, {}]]]}, {"class_name": "Conv2D", "config": {"name": "block2c_se_expand", "trainable": false, "dtype": "float32", "filters": 192, "kernel_size": [1, 1], "strides": [1, 1], "padding": "same", "data_format": "channels_last", "dilation_rate": [1, 1], "activation": "sigmoid", "use_bias": true, "kernel_initializer": {"class_name": "VarianceScaling", "config": {"scale": 2.0, "mode": "fan_out", "distribution": "truncated_normal", "seed": null}}, "bias_initializer": {"class_name": "Zeros", "config": {}}, "kernel_regularizer": null, "bias_regularizer": null, "activity_regularizer": null, "kernel_constraint": null, "bias_constraint": null}, "name": "block2c_se_expand", "inbound_nodes": [[["block2c_se_reduce", 0, 0, {}]]]}, {"class_name": "Multiply", "config": {"name": "block2c_se_excite", "trainable": false, "dtype": "float32"}, "name": "block2c_se_excite", "inbound_nodes": [[["block2c_activation", 0, 0, {}], ["block2c_se_expand", 0, 0, {}]]]}, {"class_name": "Conv2D", "config": {"name": "block2c_project_conv", "trainable": false, "dtype": "float32", "filters": 32, "kernel_size": [1, 1], "strides": [1, 1], "padding": "same", "data_format": "channels_last", "dilation_rate": [1, 1], "activation": "linear", "use_bias": false, "kernel_initializer": {"class_name": "VarianceScaling", "config": {"scale": 2.0, "mode": "fan_out", "distribution": "truncated_normal", "seed": null}}, "bias_initializer": {"class_name": "Zeros", "config": {}}, "kernel_regularizer": null, "bias_regularizer": null, "activity_regularizer": null, "kernel_constraint": null, "bias_constraint": null}, "name": "block2c_project_conv", "inbound_nodes": [[["block2c_se_excite", 0, 0, {}]]]}, {"class_name": "BatchNormalization", "config": {"name": "block2c_project_bn", "trainable": false, "dtype": "float32", "axis": [3], "momentum": 0.99, "epsilon": 0.001, "center": true, "scale": true, "beta_initializer": {"class_name": "Zeros", "config": {}}, "gamma_initializer": {"class_name": "Ones", "config": {}}, "moving_mean_initializer": {"class_name": "Zeros", "config": {}}, "moving_variance_initializer": {"class_name": "Ones", "config": {}}, "beta_regularizer": null, "gamma_regularizer": null, "beta_constraint": null, "gamma_constraint": null}, "name": "block2c_project_bn", "inbound_nodes": [[["block2c_project_conv", 0, 0, {}]]]}, {"class_name": "FixedDropout", "config": {"name": "block2c_drop", "trainable": false, "dtype": "float32", "rate": 0.05, "noise_shape": [null, 1, 1, 1], "seed": null}, "name": "block2c_drop", "inbound_nodes": [[["block2c_project_bn", 0, 0, {}]]]}, {"class_name": "Add", "config": {"name": "block2c_add", "trainable": false, "dtype": "float32"}, "name": "block2c_add", "inbound_nodes": [[["block2c_drop", 0, 0, {}], ["block2b_add", 0, 0, {}]]]}, {"class_name": "Conv2D", "config": {"name": "block3a_expand_conv", "trainable": false, "dtype": "float32", "filters": 192, "kernel_size": [1, 1], "strides": [1, 1], "padding": "same", "data_format": "channels_last", "dilation_rate": [1, 1], "activation": "linear", "use_bias": false, "kernel_initializer": {"class_name": "VarianceScaling", "config": {"scale": 2.0, "mode": "fan_out", "distribution": "truncated_normal", "seed": null}}, "bias_initializer": {"class_name": "Zeros", "config": {}}, "kernel_regularizer": null, "bias_regularizer": null, "activity_regularizer": null, "kernel_constraint": null, "bias_constraint": null}, "name": "block3a_expand_conv", "inbound_nodes": [[["block2c_add", 0, 0, {}]]]}, {"class_name": "BatchNormalization", "config": {"name": "block3a_expand_bn", "trainable": false, "dtype": "float32", "axis": [3], "momentum": 0.99, "epsilon": 0.001, "center": true, "scale": true, "beta_initializer": {"class_name": "Zeros", "config": {}}, "gamma_initializer": {"class_name": "Ones", "config": {}}, "moving_mean_initializer": {"class_name": "Zeros", "config": {}}, "moving_variance_initializer": {"class_name": "Ones", "config": {}}, "beta_regularizer": null, "gamma_regularizer": null, "beta_constraint": null, "gamma_constraint": null}, "name": "block3a_expand_bn", "inbound_nodes": [[["block3a_expand_conv", 0, 0, {}]]]}, {"class_name": "Activation", "config": {"name": "block3a_expand_activation", "trainable": false, "dtype": "float32", "activation": "swish"}, "name": "block3a_expand_activation", "inbound_nodes": [[["block3a_expand_bn", 0, 0, {}]]]}, {"class_name": "DepthwiseConv2D", "config": {"name": "block3a_dwconv", "trainable": false, "dtype": "float32", "kernel_size": [5, 5], "strides": [2, 2], "padding": "same", "data_format": "channels_last", "dilation_rate": [1, 1], "activation": "linear", "use_bias": false, "bias_initializer": {"class_name": "Zeros", "config": {}}, "bias_regularizer": null, "activity_regularizer": null, "bias_constraint": null, "depth_multiplier": 1, "depthwise_initializer": {"class_name": "VarianceScaling", "config": {"scale": 2.0, "mode": "fan_out", "distribution": "truncated_normal", "seed": null}}, "depthwise_regularizer": null, "depthwise_constraint": null}, "name": "block3a_dwconv", "inbound_nodes": [[["block3a_expand_activation", 0, 0, {}]]]}, {"class_name": "BatchNormalization", "config": {"name": "block3a_bn", "trainable": false, "dtype": "float32", "axis": [3], "momentum": 0.99, "epsilon": 0.001, "center": true, "scale": true, "beta_initializer": {"class_name": "Zeros", "config": {}}, "gamma_initializer": {"class_name": "Ones", "config": {}}, "moving_mean_initializer": {"class_name": "Zeros", "config": {}}, "moving_variance_initializer": {"class_name": "Ones", "config": {}}, "beta_regularizer": null, "gamma_regularizer": null, "beta_constraint": null, "gamma_constraint": null}, "name": "block3a_bn", "inbound_nodes": [[["block3a_dwconv", 0, 0, {}]]]}, {"class_name": "Activation", "config": {"name": "block3a_activation", "trainable": false, "dtype": "float32", "activation": "swish"}, "name": "block3a_activation", "inbound_nodes": [[["block3a_bn", 0, 0, {}]]]}, {"class_name": "GlobalAveragePooling2D", "config": {"name": "block3a_se_squeeze", "trainable": false, "dtype": "float32", "data_format": "channels_last"}, "name": "block3a_se_squeeze", "inbound_nodes": [[["block3a_activation", 0, 0, {}]]]}, {"class_name": "Reshape", "config": {"name": "block3a_se_reshape", "trainable": false, "dtype": "float32", "target_shape": [1, 1, 192]}, "name": "block3a_se_reshape", "inbound_nodes": [[["block3a_se_squeeze", 0, 0, {}]]]}, {"class_name": "Conv2D", "config": {"name": "block3a_se_reduce", "trainable": false, "dtype": "float32", "filters": 8, "kernel_size": [1, 1], "strides": [1, 1], "padding": "same", "data_format": "channels_last", "dilation_rate": [1, 1], "activation": "swish", "use_bias": true, "kernel_initializer": {"class_name": "VarianceScaling", "config": {"scale": 2.0, "mode": "fan_out", "distribution": "truncated_normal", "seed": null}}, "bias_initializer": {"class_name": "Zeros", "config": {}}, "kernel_regularizer": null, "bias_regularizer": null, "activity_regularizer": null, "kernel_constraint": null, "bias_constraint": null}, "name": "block3a_se_reduce", "inbound_nodes": [[["block3a_se_reshape", 0, 0, {}]]]}, {"class_name": "Conv2D", "config": {"name": "block3a_se_expand", "trainable": false, "dtype": "float32", "filters": 192, "kernel_size": [1, 1], "strides": [1, 1], "padding": "same", "data_format": "channels_last", "dilation_rate": [1, 1], "activation": "sigmoid", "use_bias": true, "kernel_initializer": {"class_name": "VarianceScaling", "config": {"scale": 2.0, "mode": "fan_out", "distribution": "truncated_normal", "seed": null}}, "bias_initializer": {"class_name": "Zeros", "config": {}}, "kernel_regularizer": null, "bias_regularizer": null, "activity_regularizer": null, "kernel_constraint": null, "bias_constraint": null}, "name": "block3a_se_expand", "inbound_nodes": [[["block3a_se_reduce", 0, 0, {}]]]}, {"class_name": "Multiply", "config": {"name": "block3a_se_excite", "trainable": false, "dtype": "float32"}, "name": "block3a_se_excite", "inbound_nodes": [[["block3a_activation", 0, 0, {}], ["block3a_se_expand", 0, 0, {}]]]}, {"class_name": "Conv2D", "config": {"name": "block3a_project_conv", "trainable": false, "dtype": "float32", "filters": 48, "kernel_size": [1, 1], "strides": [1, 1], "padding": "same", "data_format": "channels_last", "dilation_rate": [1, 1], "activation": "linear", "use_bias": false, "kernel_initializer": {"class_name": "VarianceScaling", "config": {"scale": 2.0, "mode": "fan_out", "distribution": "truncated_normal", "seed": null}}, "bias_initializer": {"class_name": "Zeros", "config": {}}, "kernel_regularizer": null, "bias_regularizer": null, "activity_regularizer": null, "kernel_constraint": null, "bias_constraint": null}, "name": "block3a_project_conv", "inbound_nodes": [[["block3a_se_excite", 0, 0, {}]]]}, {"class_name": "BatchNormalization", "config": {"name": "block3a_project_bn", "trainable": false, "dtype": "float32", "axis": [3], "momentum": 0.99, "epsilon": 0.001, "center": true, "scale": true, "beta_initializer": {"class_name": "Zeros", "config": {}}, "gamma_initializer": {"class_name": "Ones", "config": {}}, "moving_mean_initializer": {"class_name": "Zeros", "config": {}}, "moving_variance_initializer": {"class_name": "Ones", "config": {}}, "beta_regularizer": null, "gamma_regularizer": null, "beta_constraint": null, "gamma_constraint": null}, "name": "block3a_project_bn", "inbound_nodes": [[["block3a_project_conv", 0, 0, {}]]]}, {"class_name": "Conv2D", "config": {"name": "block3b_expand_conv", "trainable": false, "dtype": "float32", "filters": 288, "kernel_size": [1, 1], "strides": [1, 1], "padding": "same", "data_format": "channels_last", "dilation_rate": [1, 1], "activation": "linear", "use_bias": false, "kernel_initializer": {"class_name": "VarianceScaling", "config": {"scale": 2.0, "mode": "fan_out", "distribution": "truncated_normal", "seed": null}}, "bias_initializer": {"class_name": "Zeros", "config": {}}, "kernel_regularizer": null, "bias_regularizer": null, "activity_regularizer": null, "kernel_constraint": null, "bias_constraint": null}, "name": "block3b_expand_conv", "inbound_nodes": [[["block3a_project_bn", 0, 0, {}]]]}, {"class_name": "BatchNormalization", "config": {"name": "block3b_expand_bn", "trainable": false, "dtype": "float32", "axis": [3], "momentum": 0.99, "epsilon": 0.001, "center": true, "scale": true, "beta_initializer": {"class_name": "Zeros", "config": {}}, "gamma_initializer": {"class_name": "Ones", "config": {}}, "moving_mean_initializer": {"class_name": "Zeros", "config": {}}, "moving_variance_initializer": {"class_name": "Ones", "config": {}}, "beta_regularizer": null, "gamma_regularizer": null, "beta_constraint": null, "gamma_constraint": null}, "name": "block3b_expand_bn", "inbound_nodes": [[["block3b_expand_conv", 0, 0, {}]]]}, {"class_name": "Activation", "config": {"name": "block3b_expand_activation", "trainable": false, "dtype": "float32", "activation": "swish"}, "name": "block3b_expand_activation", "inbound_nodes": [[["block3b_expand_bn", 0, 0, {}]]]}, {"class_name": "DepthwiseConv2D", "config": {"name": "block3b_dwconv", "trainable": false, "dtype": "float32", "kernel_size": [5, 5], "strides": [1, 1], "padding": "same", "data_format": "channels_last", "dilation_rate": [1, 1], "activation": "linear", "use_bias": false, "bias_initializer": {"class_name": "Zeros", "config": {}}, "bias_regularizer": null, "activity_regularizer": null, "bias_constraint": null, "depth_multiplier": 1, "depthwise_initializer": {"class_name": "VarianceScaling", "config": {"scale": 2.0, "mode": "fan_out", "distribution": "truncated_normal", "seed": null}}, "depthwise_regularizer": null, "depthwise_constraint": null}, "name": "block3b_dwconv", "inbound_nodes": [[["block3b_expand_activation", 0, 0, {}]]]}, {"class_name": "BatchNormalization", "config": {"name": "block3b_bn", "trainable": false, "dtype": "float32", "axis": [3], "momentum": 0.99, "epsilon": 0.001, "center": true, "scale": true, "beta_initializer": {"class_name": "Zeros", "config": {}}, "gamma_initializer": {"class_name": "Ones", "config": {}}, "moving_mean_initializer": {"class_name": "Zeros", "config": {}}, "moving_variance_initializer": {"class_name": "Ones", "config": {}}, "beta_regularizer": null, "gamma_regularizer": null, "beta_constraint": null, "gamma_constraint": null}, "name": "block3b_bn", "inbound_nodes": [[["block3b_dwconv", 0, 0, {}]]]}, {"class_name": "Activation", "config": {"name": "block3b_activation", "trainable": false, "dtype": "float32", "activation": "swish"}, "name": "block3b_activation", "inbound_nodes": [[["block3b_bn", 0, 0, {}]]]}, {"class_name": "GlobalAveragePooling2D", "config": {"name": "block3b_se_squeeze", "trainable": false, "dtype": "float32", "data_format": "channels_last"}, "name": "block3b_se_squeeze", "inbound_nodes": [[["block3b_activation", 0, 0, {}]]]}, {"class_name": "Reshape", "config": {"name": "block3b_se_reshape", "trainable": false, "dtype": "float32", "target_shape": [1, 1, 288]}, "name": "block3b_se_reshape", "inbound_nodes": [[["block3b_se_squeeze", 0, 0, {}]]]}, {"class_name": "Conv2D", "config": {"name": "block3b_se_reduce", "trainable": false, "dtype": "float32", "filters": 12, "kernel_size": [1, 1], "strides": [1, 1], "padding": "same", "data_format": "channels_last", "dilation_rate": [1, 1], "activation": "swish", "use_bias": true, "kernel_initializer": {"class_name": "VarianceScaling", "config": {"scale": 2.0, "mode": "fan_out", "distribution": "truncated_normal", "seed": null}}, "bias_initializer": {"class_name": "Zeros", "config": {}}, "kernel_regularizer": null, "bias_regularizer": null, "activity_regularizer": null, "kernel_constraint": null, "bias_constraint": null}, "name": "block3b_se_reduce", "inbound_nodes": [[["block3b_se_reshape", 0, 0, {}]]]}, {"class_name": "Conv2D", "config": {"name": "block3b_se_expand", "trainable": false, "dtype": "float32", "filters": 288, "kernel_size": [1, 1], "strides": [1, 1], "padding": "same", "data_format": "channels_last", "dilation_rate": [1, 1], "activation": "sigmoid", "use_bias": true, "kernel_initializer": {"class_name": "VarianceScaling", "config": {"scale": 2.0, "mode": "fan_out", "distribution": "truncated_normal", "seed": null}}, "bias_initializer": {"class_name": "Zeros", "config": {}}, "kernel_regularizer": null, "bias_regularizer": null, "activity_regularizer": null, "kernel_constraint": null, "bias_constraint": null}, "name": "block3b_se_expand", "inbound_nodes": [[["block3b_se_reduce", 0, 0, {}]]]}, {"class_name": "Multiply", "config": {"name": "block3b_se_excite", "trainable": false, "dtype": "float32"}, "name": "block3b_se_excite", "inbound_nodes": [[["block3b_activation", 0, 0, {}], ["block3b_se_expand", 0, 0, {}]]]}, {"class_name": "Conv2D", "config": {"name": "block3b_project_conv", "trainable": false, "dtype": "float32", "filters": 48, "kernel_size": [1, 1], "strides": [1, 1], "padding": "same", "data_format": "channels_last", "dilation_rate": [1, 1], "activation": "linear", "use_bias": false, "kernel_initializer": {"class_name": "VarianceScaling", "config": {"scale": 2.0, "mode": "fan_out", "distribution": "truncated_normal", "seed": null}}, "bias_initializer": {"class_name": "Zeros", "config": {}}, "kernel_regularizer": null, "bias_regularizer": null, "activity_regularizer": null, "kernel_constraint": null, "bias_constraint": null}, "name": "block3b_project_conv", "inbound_nodes": [[["block3b_se_excite", 0, 0, {}]]]}, {"class_name": "BatchNormalization", "config": {"name": "block3b_project_bn", "trainable": false, "dtype": "float32", "axis": [3], "momentum": 0.99, "epsilon": 0.001, "center": true, "scale": true, "beta_initializer": {"class_name": "Zeros", "config": {}}, "gamma_initializer": {"class_name": "Ones", "config": {}}, "moving_mean_initializer": {"class_name": "Zeros", "config": {}}, "moving_variance_initializer": {"class_name": "Ones", "config": {}}, "beta_regularizer": null, "gamma_regularizer": null, "beta_constraint": null, "gamma_constraint": null}, "name": "block3b_project_bn", "inbound_nodes": [[["block3b_project_conv", 0, 0, {}]]]}, {"class_name": "FixedDropout", "config": {"name": "block3b_drop", "trainable": false, "dtype": "float32", "rate": 0.07500000000000001, "noise_shape": [null, 1, 1, 1], "seed": null}, "name": "block3b_drop", "inbound_nodes": [[["block3b_project_bn", 0, 0, {}]]]}, {"class_name": "Add", "config": {"name": "block3b_add", "trainable": false, "dtype": "float32"}, "name": "block3b_add", "inbound_nodes": [[["block3b_drop", 0, 0, {}], ["block3a_project_bn", 0, 0, {}]]]}, {"class_name": "Conv2D", "config": {"name": "block3c_expand_conv", "trainable": false, "dtype": "float32", "filters": 288, "kernel_size": [1, 1], "strides": [1, 1], "padding": "same", "data_format": "channels_last", "dilation_rate": [1, 1], "activation": "linear", "use_bias": false, "kernel_initializer": {"class_name": "VarianceScaling", "config": {"scale": 2.0, "mode": "fan_out", "distribution": "truncated_normal", "seed": null}}, "bias_initializer": {"class_name": "Zeros", "config": {}}, "kernel_regularizer": null, "bias_regularizer": null, "activity_regularizer": null, "kernel_constraint": null, "bias_constraint": null}, "name": "block3c_expand_conv", "inbound_nodes": [[["block3b_add", 0, 0, {}]]]}, {"class_name": "BatchNormalization", "config": {"name": "block3c_expand_bn", "trainable": false, "dtype": "float32", "axis": [3], "momentum": 0.99, "epsilon": 0.001, "center": true, "scale": true, "beta_initializer": {"class_name": "Zeros", "config": {}}, "gamma_initializer": {"class_name": "Ones", "config": {}}, "moving_mean_initializer": {"class_name": "Zeros", "config": {}}, "moving_variance_initializer": {"class_name": "Ones", "config": {}}, "beta_regularizer": null, "gamma_regularizer": null, "beta_constraint": null, "gamma_constraint": null}, "name": "block3c_expand_bn", "inbound_nodes": [[["block3c_expand_conv", 0, 0, {}]]]}, {"class_name": "Activation", "config": {"name": "block3c_expand_activation", "trainable": false, "dtype": "float32", "activation": "swish"}, "name": "block3c_expand_activation", "inbound_nodes": [[["block3c_expand_bn", 0, 0, {}]]]}, {"class_name": "DepthwiseConv2D", "config": {"name": "block3c_dwconv", "trainable": false, "dtype": "float32", "kernel_size": [5, 5], "strides": [1, 1], "padding": "same", "data_format": "channels_last", "dilation_rate": [1, 1], "activation": "linear", "use_bias": false, "bias_initializer": {"class_name": "Zeros", "config": {}}, "bias_regularizer": null, "activity_regularizer": null, "bias_constraint": null, "depth_multiplier": 1, "depthwise_initializer": {"class_name": "VarianceScaling", "config": {"scale": 2.0, "mode": "fan_out", "distribution": "truncated_normal", "seed": null}}, "depthwise_regularizer": null, "depthwise_constraint": null}, "name": "block3c_dwconv", "inbound_nodes": [[["block3c_expand_activation", 0, 0, {}]]]}, {"class_name": "BatchNormalization", "config": {"name": "block3c_bn", "trainable": false, "dtype": "float32", "axis": [3], "momentum": 0.99, "epsilon": 0.001, "center": true, "scale": true, "beta_initializer": {"class_name": "Zeros", "config": {}}, "gamma_initializer": {"class_name": "Ones", "config": {}}, "moving_mean_initializer": {"class_name": "Zeros", "config": {}}, "moving_variance_initializer": {"class_name": "Ones", "config": {}}, "beta_regularizer": null, "gamma_regularizer": null, "beta_constraint": null, "gamma_constraint": null}, "name": "block3c_bn", "inbound_nodes": [[["block3c_dwconv", 0, 0, {}]]]}, {"class_name": "Activation", "config": {"name": "block3c_activation", "trainable": false, "dtype": "float32", "activation": "swish"}, "name": "block3c_activation", "inbound_nodes": [[["block3c_bn", 0, 0, {}]]]}, {"class_name": "GlobalAveragePooling2D", "config": {"name": "block3c_se_squeeze", "trainable": false, "dtype": "float32", "data_format": "channels_last"}, "name": "block3c_se_squeeze", "inbound_nodes": [[["block3c_activation", 0, 0, {}]]]}, {"class_name": "Reshape", "config": {"name": "block3c_se_reshape", "trainable": false, "dtype": "float32", "target_shape": [1, 1, 288]}, "name": "block3c_se_reshape", "inbound_nodes": [[["block3c_se_squeeze", 0, 0, {}]]]}, {"class_name": "Conv2D", "config": {"name": "block3c_se_reduce", "trainable": false, "dtype": "float32", "filters": 12, "kernel_size": [1, 1], "strides": [1, 1], "padding": "same", "data_format": "channels_last", "dilation_rate": [1, 1], "activation": "swish", "use_bias": true, "kernel_initializer": {"class_name": "VarianceScaling", "config": {"scale": 2.0, "mode": "fan_out", "distribution": "truncated_normal", "seed": null}}, "bias_initializer": {"class_name": "Zeros", "config": {}}, "kernel_regularizer": null, "bias_regularizer": null, "activity_regularizer": null, "kernel_constraint": null, "bias_constraint": null}, "name": "block3c_se_reduce", "inbound_nodes": [[["block3c_se_reshape", 0, 0, {}]]]}, {"class_name": "Conv2D", "config": {"name": "block3c_se_expand", "trainable": false, "dtype": "float32", "filters": 288, "kernel_size": [1, 1], "strides": [1, 1], "padding": "same", "data_format": "channels_last", "dilation_rate": [1, 1], "activation": "sigmoid", "use_bias": true, "kernel_initializer": {"class_name": "VarianceScaling", "config": {"scale": 2.0, "mode": "fan_out", "distribution": "truncated_normal", "seed": null}}, "bias_initializer": {"class_name": "Zeros", "config": {}}, "kernel_regularizer": null, "bias_regularizer": null, "activity_regularizer": null, "kernel_constraint": null, "bias_constraint": null}, "name": "block3c_se_expand", "inbound_nodes": [[["block3c_se_reduce", 0, 0, {}]]]}, {"class_name": "Multiply", "config": {"name": "block3c_se_excite", "trainable": false, "dtype": "float32"}, "name": "block3c_se_excite", "inbound_nodes": [[["block3c_activation", 0, 0, {}], ["block3c_se_expand", 0, 0, {}]]]}, {"class_name": "Conv2D", "config": {"name": "block3c_project_conv", "trainable": false, "dtype": "float32", "filters": 48, "kernel_size": [1, 1], "strides": [1, 1], "padding": "same", "data_format": "channels_last", "dilation_rate": [1, 1], "activation": "linear", "use_bias": false, "kernel_initializer": {"class_name": "VarianceScaling", "config": {"scale": 2.0, "mode": "fan_out", "distribution": "truncated_normal", "seed": null}}, "bias_initializer": {"class_name": "Zeros", "config": {}}, "kernel_regularizer": null, "bias_regularizer": null, "activity_regularizer": null, "kernel_constraint": null, "bias_constraint": null}, "name": "block3c_project_conv", "inbound_nodes": [[["block3c_se_excite", 0, 0, {}]]]}, {"class_name": "BatchNormalization", "config": {"name": "block3c_project_bn", "trainable": false, "dtype": "float32", "axis": [3], "momentum": 0.99, "epsilon": 0.001, "center": true, "scale": true, "beta_initializer": {"class_name": "Zeros", "config": {}}, "gamma_initializer": {"class_name": "Ones", "config": {}}, "moving_mean_initializer": {"class_name": "Zeros", "config": {}}, "moving_variance_initializer": {"class_name": "Ones", "config": {}}, "beta_regularizer": null, "gamma_regularizer": null, "beta_constraint": null, "gamma_constraint": null}, "name": "block3c_project_bn", "inbound_nodes": [[["block3c_project_conv", 0, 0, {}]]]}, {"class_name": "FixedDropout", "config": {"name": "block3c_drop", "trainable": false, "dtype": "float32", "rate": 0.08750000000000001, "noise_shape": [null, 1, 1, 1], "seed": null}, "name": "block3c_drop", "inbound_nodes": [[["block3c_project_bn", 0, 0, {}]]]}, {"class_name": "Add", "config": {"name": "block3c_add", "trainable": false, "dtype": "float32"}, "name": "block3c_add", "inbound_nodes": [[["block3c_drop", 0, 0, {}], ["block3b_add", 0, 0, {}]]]}, {"class_name": "Conv2D", "config": {"name": "block4a_expand_conv", "trainable": false, "dtype": "float32", "filters": 288, "kernel_size": [1, 1], "strides": [1, 1], "padding": "same", "data_format": "channels_last", "dilation_rate": [1, 1], "activation": "linear", "use_bias": false, "kernel_initializer": {"class_name": "VarianceScaling", "config": {"scale": 2.0, "mode": "fan_out", "distribution": "truncated_normal", "seed": null}}, "bias_initializer": {"class_name": "Zeros", "config": {}}, "kernel_regularizer": null, "bias_regularizer": null, "activity_regularizer": null, "kernel_constraint": null, "bias_constraint": null}, "name": "block4a_expand_conv", "inbound_nodes": [[["block3c_add", 0, 0, {}]]]}, {"class_name": "BatchNormalization", "config": {"name": "block4a_expand_bn", "trainable": false, "dtype": "float32", "axis": [3], "momentum": 0.99, "epsilon": 0.001, "center": true, "scale": true, "beta_initializer": {"class_name": "Zeros", "config": {}}, "gamma_initializer": {"class_name": "Ones", "config": {}}, "moving_mean_initializer": {"class_name": "Zeros", "config": {}}, "moving_variance_initializer": {"class_name": "Ones", "config": {}}, "beta_regularizer": null, "gamma_regularizer": null, "beta_constraint": null, "gamma_constraint": null}, "name": "block4a_expand_bn", "inbound_nodes": [[["block4a_expand_conv", 0, 0, {}]]]}, {"class_name": "Activation", "config": {"name": "block4a_expand_activation", "trainable": false, "dtype": "float32", "activation": "swish"}, "name": "block4a_expand_activation", "inbound_nodes": [[["block4a_expand_bn", 0, 0, {}]]]}, {"class_name": "DepthwiseConv2D", "config": {"name": "block4a_dwconv", "trainable": false, "dtype": "float32", "kernel_size": [3, 3], "strides": [2, 2], "padding": "same", "data_format": "channels_last", "dilation_rate": [1, 1], "activation": "linear", "use_bias": false, "bias_initializer": {"class_name": "Zeros", "config": {}}, "bias_regularizer": null, "activity_regularizer": null, "bias_constraint": null, "depth_multiplier": 1, "depthwise_initializer": {"class_name": "VarianceScaling", "config": {"scale": 2.0, "mode": "fan_out", "distribution": "truncated_normal", "seed": null}}, "depthwise_regularizer": null, "depthwise_constraint": null}, "name": "block4a_dwconv", "inbound_nodes": [[["block4a_expand_activation", 0, 0, {}]]]}, {"class_name": "BatchNormalization", "config": {"name": "block4a_bn", "trainable": false, "dtype": "float32", "axis": [3], "momentum": 0.99, "epsilon": 0.001, "center": true, "scale": true, "beta_initializer": {"class_name": "Zeros", "config": {}}, "gamma_initializer": {"class_name": "Ones", "config": {}}, "moving_mean_initializer": {"class_name": "Zeros", "config": {}}, "moving_variance_initializer": {"class_name": "Ones", "config": {}}, "beta_regularizer": null, "gamma_regularizer": null, "beta_constraint": null, "gamma_constraint": null}, "name": "block4a_bn", "inbound_nodes": [[["block4a_dwconv", 0, 0, {}]]]}, {"class_name": "Activation", "config": {"name": "block4a_activation", "trainable": false, "dtype": "float32", "activation": "swish"}, "name": "block4a_activation", "inbound_nodes": [[["block4a_bn", 0, 0, {}]]]}, {"class_name": "GlobalAveragePooling2D", "config": {"name": "block4a_se_squeeze", "trainable": false, "dtype": "float32", "data_format": "channels_last"}, "name": "block4a_se_squeeze", "inbound_nodes": [[["block4a_activation", 0, 0, {}]]]}, {"class_name": "Reshape", "config": {"name": "block4a_se_reshape", "trainable": false, "dtype": "float32", "target_shape": [1, 1, 288]}, "name": "block4a_se_reshape", "inbound_nodes": [[["block4a_se_squeeze", 0, 0, {}]]]}, {"class_name": "Conv2D", "config": {"name": "block4a_se_reduce", "trainable": false, "dtype": "float32", "filters": 12, "kernel_size": [1, 1], "strides": [1, 1], "padding": "same", "data_format": "channels_last", "dilation_rate": [1, 1], "activation": "swish", "use_bias": true, "kernel_initializer": {"class_name": "VarianceScaling", "config": {"scale": 2.0, "mode": "fan_out", "distribution": "truncated_normal", "seed": null}}, "bias_initializer": {"class_name": "Zeros", "config": {}}, "kernel_regularizer": null, "bias_regularizer": null, "activity_regularizer": null, "kernel_constraint": null, "bias_constraint": null}, "name": "block4a_se_reduce", "inbound_nodes": [[["block4a_se_reshape", 0, 0, {}]]]}, {"class_name": "Conv2D", "config": {"name": "block4a_se_expand", "trainable": false, "dtype": "float32", "filters": 288, "kernel_size": [1, 1], "strides": [1, 1], "padding": "same", "data_format": "channels_last", "dilation_rate": [1, 1], "activation": "sigmoid", "use_bias": true, "kernel_initializer": {"class_name": "VarianceScaling", "config": {"scale": 2.0, "mode": "fan_out", "distribution": "truncated_normal", "seed": null}}, "bias_initializer": {"class_name": "Zeros", "config": {}}, "kernel_regularizer": null, "bias_regularizer": null, "activity_regularizer": null, "kernel_constraint": null, "bias_constraint": null}, "name": "block4a_se_expand", "inbound_nodes": [[["block4a_se_reduce", 0, 0, {}]]]}, {"class_name": "Multiply", "config": {"name": "block4a_se_excite", "trainable": false, "dtype": "float32"}, "name": "block4a_se_excite", "inbound_nodes": [[["block4a_activation", 0, 0, {}], ["block4a_se_expand", 0, 0, {}]]]}, {"class_name": "Conv2D", "config": {"name": "block4a_project_conv", "trainable": false, "dtype": "float32", "filters": 96, "kernel_size": [1, 1], "strides": [1, 1], "padding": "same", "data_format": "channels_last", "dilation_rate": [1, 1], "activation": "linear", "use_bias": false, "kernel_initializer": {"class_name": "VarianceScaling", "config": {"scale": 2.0, "mode": "fan_out", "distribution": "truncated_normal", "seed": null}}, "bias_initializer": {"class_name": "Zeros", "config": {}}, "kernel_regularizer": null, "bias_regularizer": null, "activity_regularizer": null, "kernel_constraint": null, "bias_constraint": null}, "name": "block4a_project_conv", "inbound_nodes": [[["block4a_se_excite", 0, 0, {}]]]}, {"class_name": "BatchNormalization", "config": {"name": "block4a_project_bn", "trainable": false, "dtype": "float32", "axis": [3], "momentum": 0.99, "epsilon": 0.001, "center": true, "scale": true, "beta_initializer": {"class_name": "Zeros", "config": {}}, "gamma_initializer": {"class_name": "Ones", "config": {}}, "moving_mean_initializer": {"class_name": "Zeros", "config": {}}, "moving_variance_initializer": {"class_name": "Ones", "config": {}}, "beta_regularizer": null, "gamma_regularizer": null, "beta_constraint": null, "gamma_constraint": null}, "name": "block4a_project_bn", "inbound_nodes": [[["block4a_project_conv", 0, 0, {}]]]}, {"class_name": "Conv2D", "config": {"name": "block4b_expand_conv", "trainable": false, "dtype": "float32", "filters": 576, "kernel_size": [1, 1], "strides": [1, 1], "padding": "same", "data_format": "channels_last", "dilation_rate": [1, 1], "activation": "linear", "use_bias": false, "kernel_initializer": {"class_name": "VarianceScaling", "config": {"scale": 2.0, "mode": "fan_out", "distribution": "truncated_normal", "seed": null}}, "bias_initializer": {"class_name": "Zeros", "config": {}}, "kernel_regularizer": null, "bias_regularizer": null, "activity_regularizer": null, "kernel_constraint": null, "bias_constraint": null}, "name": "block4b_expand_conv", "inbound_nodes": [[["block4a_project_bn", 0, 0, {}]]]}, {"class_name": "BatchNormalization", "config": {"name": "block4b_expand_bn", "trainable": false, "dtype": "float32", "axis": [3], "momentum": 0.99, "epsilon": 0.001, "center": true, "scale": true, "beta_initializer": {"class_name": "Zeros", "config": {}}, "gamma_initializer": {"class_name": "Ones", "config": {}}, "moving_mean_initializer": {"class_name": "Zeros", "config": {}}, "moving_variance_initializer": {"class_name": "Ones", "config": {}}, "beta_regularizer": null, "gamma_regularizer": null, "beta_constraint": null, "gamma_constraint": null}, "name": "block4b_expand_bn", "inbound_nodes": [[["block4b_expand_conv", 0, 0, {}]]]}, {"class_name": "Activation", "config": {"name": "block4b_expand_activation", "trainable": false, "dtype": "float32", "activation": "swish"}, "name": "block4b_expand_activation", "inbound_nodes": [[["block4b_expand_bn", 0, 0, {}]]]}, {"class_name": "DepthwiseConv2D", "config": {"name": "block4b_dwconv", "trainable": false, "dtype": "float32", "kernel_size": [3, 3], "strides": [1, 1], "padding": "same", "data_format": "channels_last", "dilation_rate": [1, 1], "activation": "linear", "use_bias": false, "bias_initializer": {"class_name": "Zeros", "config": {}}, "bias_regularizer": null, "activity_regularizer": null, "bias_constraint": null, "depth_multiplier": 1, "depthwise_initializer": {"class_name": "VarianceScaling", "config": {"scale": 2.0, "mode": "fan_out", "distribution": "truncated_normal", "seed": null}}, "depthwise_regularizer": null, "depthwise_constraint": null}, "name": "block4b_dwconv", "inbound_nodes": [[["block4b_expand_activation", 0, 0, {}]]]}, {"class_name": "BatchNormalization", "config": {"name": "block4b_bn", "trainable": false, "dtype": "float32", "axis": [3], "momentum": 0.99, "epsilon": 0.001, "center": true, "scale": true, "beta_initializer": {"class_name": "Zeros", "config": {}}, "gamma_initializer": {"class_name": "Ones", "config": {}}, "moving_mean_initializer": {"class_name": "Zeros", "config": {}}, "moving_variance_initializer": {"class_name": "Ones", "config": {}}, "beta_regularizer": null, "gamma_regularizer": null, "beta_constraint": null, "gamma_constraint": null}, "name": "block4b_bn", "inbound_nodes": [[["block4b_dwconv", 0, 0, {}]]]}, {"class_name": "Activation", "config": {"name": "block4b_activation", "trainable": false, "dtype": "float32", "activation": "swish"}, "name": "block4b_activation", "inbound_nodes": [[["block4b_bn", 0, 0, {}]]]}, {"class_name": "GlobalAveragePooling2D", "config": {"name": "block4b_se_squeeze", "trainable": false, "dtype": "float32", "data_format": "channels_last"}, "name": "block4b_se_squeeze", "inbound_nodes": [[["block4b_activation", 0, 0, {}]]]}, {"class_name": "Reshape", "config": {"name": "block4b_se_reshape", "trainable": false, "dtype": "float32", "target_shape": [1, 1, 576]}, "name": "block4b_se_reshape", "inbound_nodes": [[["block4b_se_squeeze", 0, 0, {}]]]}, {"class_name": "Conv2D", "config": {"name": "block4b_se_reduce", "trainable": false, "dtype": "float32", "filters": 24, "kernel_size": [1, 1], "strides": [1, 1], "padding": "same", "data_format": "channels_last", "dilation_rate": [1, 1], "activation": "swish", "use_bias": true, "kernel_initializer": {"class_name": "VarianceScaling", "config": {"scale": 2.0, "mode": "fan_out", "distribution": "truncated_normal", "seed": null}}, "bias_initializer": {"class_name": "Zeros", "config": {}}, "kernel_regularizer": null, "bias_regularizer": null, "activity_regularizer": null, "kernel_constraint": null, "bias_constraint": null}, "name": "block4b_se_reduce", "inbound_nodes": [[["block4b_se_reshape", 0, 0, {}]]]}, {"class_name": "Conv2D", "config": {"name": "block4b_se_expand", "trainable": false, "dtype": "float32", "filters": 576, "kernel_size": [1, 1], "strides": [1, 1], "padding": "same", "data_format": "channels_last", "dilation_rate": [1, 1], "activation": "sigmoid", "use_bias": true, "kernel_initializer": {"class_name": "VarianceScaling", "config": {"scale": 2.0, "mode": "fan_out", "distribution": "truncated_normal", "seed": null}}, "bias_initializer": {"class_name": "Zeros", "config": {}}, "kernel_regularizer": null, "bias_regularizer": null, "activity_regularizer": null, "kernel_constraint": null, "bias_constraint": null}, "name": "block4b_se_expand", "inbound_nodes": [[["block4b_se_reduce", 0, 0, {}]]]}, {"class_name": "Multiply", "config": {"name": "block4b_se_excite", "trainable": false, "dtype": "float32"}, "name": "block4b_se_excite", "inbound_nodes": [[["block4b_activation", 0, 0, {}], ["block4b_se_expand", 0, 0, {}]]]}, {"class_name": "Conv2D", "config": {"name": "block4b_project_conv", "trainable": false, "dtype": "float32", "filters": 96, "kernel_size": [1, 1], "strides": [1, 1], "padding": "same", "data_format": "channels_last", "dilation_rate": [1, 1], "activation": "linear", "use_bias": false, "kernel_initializer": {"class_name": "VarianceScaling", "config": {"scale": 2.0, "mode": "fan_out", "distribution": "truncated_normal", "seed": null}}, "bias_initializer": {"class_name": "Zeros", "config": {}}, "kernel_regularizer": null, "bias_regularizer": null, "activity_regularizer": null, "kernel_constraint": null, "bias_constraint": null}, "name": "block4b_project_conv", "inbound_nodes": [[["block4b_se_excite", 0, 0, {}]]]}, {"class_name": "BatchNormalization", "config": {"name": "block4b_project_bn", "trainable": false, "dtype": "float32", "axis": [3], "momentum": 0.99, "epsilon": 0.001, "center": true, "scale": true, "beta_initializer": {"class_name": "Zeros", "config": {}}, "gamma_initializer": {"class_name": "Ones", "config": {}}, "moving_mean_initializer": {"class_name": "Zeros", "config": {}}, "moving_variance_initializer": {"class_name": "Ones", "config": {}}, "beta_regularizer": null, "gamma_regularizer": null, "beta_constraint": null, "gamma_constraint": null}, "name": "block4b_project_bn", "inbound_nodes": [[["block4b_project_conv", 0, 0, {}]]]}, {"class_name": "FixedDropout", "config": {"name": "block4b_drop", "trainable": false, "dtype": "float32", "rate": 0.1125, "noise_shape": [null, 1, 1, 1], "seed": null}, "name": "block4b_drop", "inbound_nodes": [[["block4b_project_bn", 0, 0, {}]]]}, {"class_name": "Add", "config": {"name": "block4b_add", "trainable": false, "dtype": "float32"}, "name": "block4b_add", "inbound_nodes": [[["block4b_drop", 0, 0, {}], ["block4a_project_bn", 0, 0, {}]]]}, {"class_name": "Conv2D", "config": {"name": "block4c_expand_conv", "trainable": false, "dtype": "float32", "filters": 576, "kernel_size": [1, 1], "strides": [1, 1], "padding": "same", "data_format": "channels_last", "dilation_rate": [1, 1], "activation": "linear", "use_bias": false, "kernel_initializer": {"class_name": "VarianceScaling", "config": {"scale": 2.0, "mode": "fan_out", "distribution": "truncated_normal", "seed": null}}, "bias_initializer": {"class_name": "Zeros", "config": {}}, "kernel_regularizer": null, "bias_regularizer": null, "activity_regularizer": null, "kernel_constraint": null, "bias_constraint": null}, "name": "block4c_expand_conv", "inbound_nodes": [[["block4b_add", 0, 0, {}]]]}, {"class_name": "BatchNormalization", "config": {"name": "block4c_expand_bn", "trainable": false, "dtype": "float32", "axis": [3], "momentum": 0.99, "epsilon": 0.001, "center": true, "scale": true, "beta_initializer": {"class_name": "Zeros", "config": {}}, "gamma_initializer": {"class_name": "Ones", "config": {}}, "moving_mean_initializer": {"class_name": "Zeros", "config": {}}, "moving_variance_initializer": {"class_name": "Ones", "config": {}}, "beta_regularizer": null, "gamma_regularizer": null, "beta_constraint": null, "gamma_constraint": null}, "name": "block4c_expand_bn", "inbound_nodes": [[["block4c_expand_conv", 0, 0, {}]]]}, {"class_name": "Activation", "config": {"name": "block4c_expand_activation", "trainable": false, "dtype": "float32", "activation": "swish"}, "name": "block4c_expand_activation", "inbound_nodes": [[["block4c_expand_bn", 0, 0, {}]]]}, {"class_name": "DepthwiseConv2D", "config": {"name": "block4c_dwconv", "trainable": false, "dtype": "float32", "kernel_size": [3, 3], "strides": [1, 1], "padding": "same", "data_format": "channels_last", "dilation_rate": [1, 1], "activation": "linear", "use_bias": false, "bias_initializer": {"class_name": "Zeros", "config": {}}, "bias_regularizer": null, "activity_regularizer": null, "bias_constraint": null, "depth_multiplier": 1, "depthwise_initializer": {"class_name": "VarianceScaling", "config": {"scale": 2.0, "mode": "fan_out", "distribution": "truncated_normal", "seed": null}}, "depthwise_regularizer": null, "depthwise_constraint": null}, "name": "block4c_dwconv", "inbound_nodes": [[["block4c_expand_activation", 0, 0, {}]]]}, {"class_name": "BatchNormalization", "config": {"name": "block4c_bn", "trainable": false, "dtype": "float32", "axis": [3], "momentum": 0.99, "epsilon": 0.001, "center": true, "scale": true, "beta_initializer": {"class_name": "Zeros", "config": {}}, "gamma_initializer": {"class_name": "Ones", "config": {}}, "moving_mean_initializer": {"class_name": "Zeros", "config": {}}, "moving_variance_initializer": {"class_name": "Ones", "config": {}}, "beta_regularizer": null, "gamma_regularizer": null, "beta_constraint": null, "gamma_constraint": null}, "name": "block4c_bn", "inbound_nodes": [[["block4c_dwconv", 0, 0, {}]]]}, {"class_name": "Activation", "config": {"name": "block4c_activation", "trainable": false, "dtype": "float32", "activation": "swish"}, "name": "block4c_activation", "inbound_nodes": [[["block4c_bn", 0, 0, {}]]]}, {"class_name": "GlobalAveragePooling2D", "config": {"name": "block4c_se_squeeze", "trainable": false, "dtype": "float32", "data_format": "channels_last"}, "name": "block4c_se_squeeze", "inbound_nodes": [[["block4c_activation", 0, 0, {}]]]}, {"class_name": "Reshape", "config": {"name": "block4c_se_reshape", "trainable": false, "dtype": "float32", "target_shape": [1, 1, 576]}, "name": "block4c_se_reshape", "inbound_nodes": [[["block4c_se_squeeze", 0, 0, {}]]]}, {"class_name": "Conv2D", "config": {"name": "block4c_se_reduce", "trainable": false, "dtype": "float32", "filters": 24, "kernel_size": [1, 1], "strides": [1, 1], "padding": "same", "data_format": "channels_last", "dilation_rate": [1, 1], "activation": "swish", "use_bias": true, "kernel_initializer": {"class_name": "VarianceScaling", "config": {"scale": 2.0, "mode": "fan_out", "distribution": "truncated_normal", "seed": null}}, "bias_initializer": {"class_name": "Zeros", "config": {}}, "kernel_regularizer": null, "bias_regularizer": null, "activity_regularizer": null, "kernel_constraint": null, "bias_constraint": null}, "name": "block4c_se_reduce", "inbound_nodes": [[["block4c_se_reshape", 0, 0, {}]]]}, {"class_name": "Conv2D", "config": {"name": "block4c_se_expand", "trainable": false, "dtype": "float32", "filters": 576, "kernel_size": [1, 1], "strides": [1, 1], "padding": "same", "data_format": "channels_last", "dilation_rate": [1, 1], "activation": "sigmoid", "use_bias": true, "kernel_initializer": {"class_name": "VarianceScaling", "config": {"scale": 2.0, "mode": "fan_out", "distribution": "truncated_normal", "seed": null}}, "bias_initializer": {"class_name": "Zeros", "config": {}}, "kernel_regularizer": null, "bias_regularizer": null, "activity_regularizer": null, "kernel_constraint": null, "bias_constraint": null}, "name": "block4c_se_expand", "inbound_nodes": [[["block4c_se_reduce", 0, 0, {}]]]}, {"class_name": "Multiply", "config": {"name": "block4c_se_excite", "trainable": false, "dtype": "float32"}, "name": "block4c_se_excite", "inbound_nodes": [[["block4c_activation", 0, 0, {}], ["block4c_se_expand", 0, 0, {}]]]}, {"class_name": "Conv2D", "config": {"name": "block4c_project_conv", "trainable": false, "dtype": "float32", "filters": 96, "kernel_size": [1, 1], "strides": [1, 1], "padding": "same", "data_format": "channels_last", "dilation_rate": [1, 1], "activation": "linear", "use_bias": false, "kernel_initializer": {"class_name": "VarianceScaling", "config": {"scale": 2.0, "mode": "fan_out", "distribution": "truncated_normal", "seed": null}}, "bias_initializer": {"class_name": "Zeros", "config": {}}, "kernel_regularizer": null, "bias_regularizer": null, "activity_regularizer": null, "kernel_constraint": null, "bias_constraint": null}, "name": "block4c_project_conv", "inbound_nodes": [[["block4c_se_excite", 0, 0, {}]]]}, {"class_name": "BatchNormalization", "config": {"name": "block4c_project_bn", "trainable": false, "dtype": "float32", "axis": [3], "momentum": 0.99, "epsilon": 0.001, "center": true, "scale": true, "beta_initializer": {"class_name": "Zeros", "config": {}}, "gamma_initializer": {"class_name": "Ones", "config": {}}, "moving_mean_initializer": {"class_name": "Zeros", "config": {}}, "moving_variance_initializer": {"class_name": "Ones", "config": {}}, "beta_regularizer": null, "gamma_regularizer": null, "beta_constraint": null, "gamma_constraint": null}, "name": "block4c_project_bn", "inbound_nodes": [[["block4c_project_conv", 0, 0, {}]]]}, {"class_name": "FixedDropout", "config": {"name": "block4c_drop", "trainable": false, "dtype": "float32", "rate": 0.125, "noise_shape": [null, 1, 1, 1], "seed": null}, "name": "block4c_drop", "inbound_nodes": [[["block4c_project_bn", 0, 0, {}]]]}, {"class_name": "Add", "config": {"name": "block4c_add", "trainable": false, "dtype": "float32"}, "name": "block4c_add", "inbound_nodes": [[["block4c_drop", 0, 0, {}], ["block4b_add", 0, 0, {}]]]}, {"class_name": "Conv2D", "config": {"name": "block4d_expand_conv", "trainable": false, "dtype": "float32", "filters": 576, "kernel_size": [1, 1], "strides": [1, 1], "padding": "same", "data_format": "channels_last", "dilation_rate": [1, 1], "activation": "linear", "use_bias": false, "kernel_initializer": {"class_name": "VarianceScaling", "config": {"scale": 2.0, "mode": "fan_out", "distribution": "truncated_normal", "seed": null}}, "bias_initializer": {"class_name": "Zeros", "config": {}}, "kernel_regularizer": null, "bias_regularizer": null, "activity_regularizer": null, "kernel_constraint": null, "bias_constraint": null}, "name": "block4d_expand_conv", "inbound_nodes": [[["block4c_add", 0, 0, {}]]]}, {"class_name": "BatchNormalization", "config": {"name": "block4d_expand_bn", "trainable": false, "dtype": "float32", "axis": [3], "momentum": 0.99, "epsilon": 0.001, "center": true, "scale": true, "beta_initializer": {"class_name": "Zeros", "config": {}}, "gamma_initializer": {"class_name": "Ones", "config": {}}, "moving_mean_initializer": {"class_name": "Zeros", "config": {}}, "moving_variance_initializer": {"class_name": "Ones", "config": {}}, "beta_regularizer": null, "gamma_regularizer": null, "beta_constraint": null, "gamma_constraint": null}, "name": "block4d_expand_bn", "inbound_nodes": [[["block4d_expand_conv", 0, 0, {}]]]}, {"class_name": "Activation", "config": {"name": "block4d_expand_activation", "trainable": false, "dtype": "float32", "activation": "swish"}, "name": "block4d_expand_activation", "inbound_nodes": [[["block4d_expand_bn", 0, 0, {}]]]}, {"class_name": "DepthwiseConv2D", "config": {"name": "block4d_dwconv", "trainable": false, "dtype": "float32", "kernel_size": [3, 3], "strides": [1, 1], "padding": "same", "data_format": "channels_last", "dilation_rate": [1, 1], "activation": "linear", "use_bias": false, "bias_initializer": {"class_name": "Zeros", "config": {}}, "bias_regularizer": null, "activity_regularizer": null, "bias_constraint": null, "depth_multiplier": 1, "depthwise_initializer": {"class_name": "VarianceScaling", "config": {"scale": 2.0, "mode": "fan_out", "distribution": "truncated_normal", "seed": null}}, "depthwise_regularizer": null, "depthwise_constraint": null}, "name": "block4d_dwconv", "inbound_nodes": [[["block4d_expand_activation", 0, 0, {}]]]}, {"class_name": "BatchNormalization", "config": {"name": "block4d_bn", "trainable": false, "dtype": "float32", "axis": [3], "momentum": 0.99, "epsilon": 0.001, "center": true, "scale": true, "beta_initializer": {"class_name": "Zeros", "config": {}}, "gamma_initializer": {"class_name": "Ones", "config": {}}, "moving_mean_initializer": {"class_name": "Zeros", "config": {}}, "moving_variance_initializer": {"class_name": "Ones", "config": {}}, "beta_regularizer": null, "gamma_regularizer": null, "beta_constraint": null, "gamma_constraint": null}, "name": "block4d_bn", "inbound_nodes": [[["block4d_dwconv", 0, 0, {}]]]}, {"class_name": "Activation", "config": {"name": "block4d_activation", "trainable": false, "dtype": "float32", "activation": "swish"}, "name": "block4d_activation", "inbound_nodes": [[["block4d_bn", 0, 0, {}]]]}, {"class_name": "GlobalAveragePooling2D", "config": {"name": "block4d_se_squeeze", "trainable": false, "dtype": "float32", "data_format": "channels_last"}, "name": "block4d_se_squeeze", "inbound_nodes": [[["block4d_activation", 0, 0, {}]]]}, {"class_name": "Reshape", "config": {"name": "block4d_se_reshape", "trainable": false, "dtype": "float32", "target_shape": [1, 1, 576]}, "name": "block4d_se_reshape", "inbound_nodes": [[["block4d_se_squeeze", 0, 0, {}]]]}, {"class_name": "Conv2D", "config": {"name": "block4d_se_reduce", "trainable": false, "dtype": "float32", "filters": 24, "kernel_size": [1, 1], "strides": [1, 1], "padding": "same", "data_format": "channels_last", "dilation_rate": [1, 1], "activation": "swish", "use_bias": true, "kernel_initializer": {"class_name": "VarianceScaling", "config": {"scale": 2.0, "mode": "fan_out", "distribution": "truncated_normal", "seed": null}}, "bias_initializer": {"class_name": "Zeros", "config": {}}, "kernel_regularizer": null, "bias_regularizer": null, "activity_regularizer": null, "kernel_constraint": null, "bias_constraint": null}, "name": "block4d_se_reduce", "inbound_nodes": [[["block4d_se_reshape", 0, 0, {}]]]}, {"class_name": "Conv2D", "config": {"name": "block4d_se_expand", "trainable": false, "dtype": "float32", "filters": 576, "kernel_size": [1, 1], "strides": [1, 1], "padding": "same", "data_format": "channels_last", "dilation_rate": [1, 1], "activation": "sigmoid", "use_bias": true, "kernel_initializer": {"class_name": "VarianceScaling", "config": {"scale": 2.0, "mode": "fan_out", "distribution": "truncated_normal", "seed": null}}, "bias_initializer": {"class_name": "Zeros", "config": {}}, "kernel_regularizer": null, "bias_regularizer": null, "activity_regularizer": null, "kernel_constraint": null, "bias_constraint": null}, "name": "block4d_se_expand", "inbound_nodes": [[["block4d_se_reduce", 0, 0, {}]]]}, {"class_name": "Multiply", "config": {"name": "block4d_se_excite", "trainable": false, "dtype": "float32"}, "name": "block4d_se_excite", "inbound_nodes": [[["block4d_activation", 0, 0, {}], ["block4d_se_expand", 0, 0, {}]]]}, {"class_name": "Conv2D", "config": {"name": "block4d_project_conv", "trainable": false, "dtype": "float32", "filters": 96, "kernel_size": [1, 1], "strides": [1, 1], "padding": "same", "data_format": "channels_last", "dilation_rate": [1, 1], "activation": "linear", "use_bias": false, "kernel_initializer": {"class_name": "VarianceScaling", "config": {"scale": 2.0, "mode": "fan_out", "distribution": "truncated_normal", "seed": null}}, "bias_initializer": {"class_name": "Zeros", "config": {}}, "kernel_regularizer": null, "bias_regularizer": null, "activity_regularizer": null, "kernel_constraint": null, "bias_constraint": null}, "name": "block4d_project_conv", "inbound_nodes": [[["block4d_se_excite", 0, 0, {}]]]}, {"class_name": "BatchNormalization", "config": {"name": "block4d_project_bn", "trainable": false, "dtype": "float32", "axis": [3], "momentum": 0.99, "epsilon": 0.001, "center": true, "scale": true, "beta_initializer": {"class_name": "Zeros", "config": {}}, "gamma_initializer": {"class_name": "Ones", "config": {}}, "moving_mean_initializer": {"class_name": "Zeros", "config": {}}, "moving_variance_initializer": {"class_name": "Ones", "config": {}}, "beta_regularizer": null, "gamma_regularizer": null, "beta_constraint": null, "gamma_constraint": null}, "name": "block4d_project_bn", "inbound_nodes": [[["block4d_project_conv", 0, 0, {}]]]}, {"class_name": "FixedDropout", "config": {"name": "block4d_drop", "trainable": false, "dtype": "float32", "rate": 0.1375, "noise_shape": [null, 1, 1, 1], "seed": null}, "name": "block4d_drop", "inbound_nodes": [[["block4d_project_bn", 0, 0, {}]]]}, {"class_name": "Add", "config": {"name": "block4d_add", "trainable": false, "dtype": "float32"}, "name": "block4d_add", "inbound_nodes": [[["block4d_drop", 0, 0, {}], ["block4c_add", 0, 0, {}]]]}, {"class_name": "Conv2D", "config": {"name": "block4e_expand_conv", "trainable": false, "dtype": "float32", "filters": 576, "kernel_size": [1, 1], "strides": [1, 1], "padding": "same", "data_format": "channels_last", "dilation_rate": [1, 1], "activation": "linear", "use_bias": false, "kernel_initializer": {"class_name": "VarianceScaling", "config": {"scale": 2.0, "mode": "fan_out", "distribution": "truncated_normal", "seed": null}}, "bias_initializer": {"class_name": "Zeros", "config": {}}, "kernel_regularizer": null, "bias_regularizer": null, "activity_regularizer": null, "kernel_constraint": null, "bias_constraint": null}, "name": "block4e_expand_conv", "inbound_nodes": [[["block4d_add", 0, 0, {}]]]}, {"class_name": "BatchNormalization", "config": {"name": "block4e_expand_bn", "trainable": false, "dtype": "float32", "axis": [3], "momentum": 0.99, "epsilon": 0.001, "center": true, "scale": true, "beta_initializer": {"class_name": "Zeros", "config": {}}, "gamma_initializer": {"class_name": "Ones", "config": {}}, "moving_mean_initializer": {"class_name": "Zeros", "config": {}}, "moving_variance_initializer": {"class_name": "Ones", "config": {}}, "beta_regularizer": null, "gamma_regularizer": null, "beta_constraint": null, "gamma_constraint": null}, "name": "block4e_expand_bn", "inbound_nodes": [[["block4e_expand_conv", 0, 0, {}]]]}, {"class_name": "Activation", "config": {"name": "block4e_expand_activation", "trainable": false, "dtype": "float32", "activation": "swish"}, "name": "block4e_expand_activation", "inbound_nodes": [[["block4e_expand_bn", 0, 0, {}]]]}, {"class_name": "DepthwiseConv2D", "config": {"name": "block4e_dwconv", "trainable": false, "dtype": "float32", "kernel_size": [3, 3], "strides": [1, 1], "padding": "same", "data_format": "channels_last", "dilation_rate": [1, 1], "activation": "linear", "use_bias": false, "bias_initializer": {"class_name": "Zeros", "config": {}}, "bias_regularizer": null, "activity_regularizer": null, "bias_constraint": null, "depth_multiplier": 1, "depthwise_initializer": {"class_name": "VarianceScaling", "config": {"scale": 2.0, "mode": "fan_out", "distribution": "truncated_normal", "seed": null}}, "depthwise_regularizer": null, "depthwise_constraint": null}, "name": "block4e_dwconv", "inbound_nodes": [[["block4e_expand_activation", 0, 0, {}]]]}, {"class_name": "BatchNormalization", "config": {"name": "block4e_bn", "trainable": false, "dtype": "float32", "axis": [3], "momentum": 0.99, "epsilon": 0.001, "center": true, "scale": true, "beta_initializer": {"class_name": "Zeros", "config": {}}, "gamma_initializer": {"class_name": "Ones", "config": {}}, "moving_mean_initializer": {"class_name": "Zeros", "config": {}}, "moving_variance_initializer": {"class_name": "Ones", "config": {}}, "beta_regularizer": null, "gamma_regularizer": null, "beta_constraint": null, "gamma_constraint": null}, "name": "block4e_bn", "inbound_nodes": [[["block4e_dwconv", 0, 0, {}]]]}, {"class_name": "Activation", "config": {"name": "block4e_activation", "trainable": false, "dtype": "float32", "activation": "swish"}, "name": "block4e_activation", "inbound_nodes": [[["block4e_bn", 0, 0, {}]]]}, {"class_name": "GlobalAveragePooling2D", "config": {"name": "block4e_se_squeeze", "trainable": false, "dtype": "float32", "data_format": "channels_last"}, "name": "block4e_se_squeeze", "inbound_nodes": [[["block4e_activation", 0, 0, {}]]]}, {"class_name": "Reshape", "config": {"name": "block4e_se_reshape", "trainable": false, "dtype": "float32", "target_shape": [1, 1, 576]}, "name": "block4e_se_reshape", "inbound_nodes": [[["block4e_se_squeeze", 0, 0, {}]]]}, {"class_name": "Conv2D", "config": {"name": "block4e_se_reduce", "trainable": false, "dtype": "float32", "filters": 24, "kernel_size": [1, 1], "strides": [1, 1], "padding": "same", "data_format": "channels_last", "dilation_rate": [1, 1], "activation": "swish", "use_bias": true, "kernel_initializer": {"class_name": "VarianceScaling", "config": {"scale": 2.0, "mode": "fan_out", "distribution": "truncated_normal", "seed": null}}, "bias_initializer": {"class_name": "Zeros", "config": {}}, "kernel_regularizer": null, "bias_regularizer": null, "activity_regularizer": null, "kernel_constraint": null, "bias_constraint": null}, "name": "block4e_se_reduce", "inbound_nodes": [[["block4e_se_reshape", 0, 0, {}]]]}, {"class_name": "Conv2D", "config": {"name": "block4e_se_expand", "trainable": false, "dtype": "float32", "filters": 576, "kernel_size": [1, 1], "strides": [1, 1], "padding": "same", "data_format": "channels_last", "dilation_rate": [1, 1], "activation": "sigmoid", "use_bias": true, "kernel_initializer": {"class_name": "VarianceScaling", "config": {"scale": 2.0, "mode": "fan_out", "distribution": "truncated_normal", "seed": null}}, "bias_initializer": {"class_name": "Zeros", "config": {}}, "kernel_regularizer": null, "bias_regularizer": null, "activity_regularizer": null, "kernel_constraint": null, "bias_constraint": null}, "name": "block4e_se_expand", "inbound_nodes": [[["block4e_se_reduce", 0, 0, {}]]]}, {"class_name": "Multiply", "config": {"name": "block4e_se_excite", "trainable": false, "dtype": "float32"}, "name": "block4e_se_excite", "inbound_nodes": [[["block4e_activation", 0, 0, {}], ["block4e_se_expand", 0, 0, {}]]]}, {"class_name": "Conv2D", "config": {"name": "block4e_project_conv", "trainable": false, "dtype": "float32", "filters": 96, "kernel_size": [1, 1], "strides": [1, 1], "padding": "same", "data_format": "channels_last", "dilation_rate": [1, 1], "activation": "linear", "use_bias": false, "kernel_initializer": {"class_name": "VarianceScaling", "config": {"scale": 2.0, "mode": "fan_out", "distribution": "truncated_normal", "seed": null}}, "bias_initializer": {"class_name": "Zeros", "config": {}}, "kernel_regularizer": null, "bias_regularizer": null, "activity_regularizer": null, "kernel_constraint": null, "bias_constraint": null}, "name": "block4e_project_conv", "inbound_nodes": [[["block4e_se_excite", 0, 0, {}]]]}, {"class_name": "BatchNormalization", "config": {"name": "block4e_project_bn", "trainable": false, "dtype": "float32", "axis": [3], "momentum": 0.99, "epsilon": 0.001, "center": true, "scale": true, "beta_initializer": {"class_name": "Zeros", "config": {}}, "gamma_initializer": {"class_name": "Ones", "config": {}}, "moving_mean_initializer": {"class_name": "Zeros", "config": {}}, "moving_variance_initializer": {"class_name": "Ones", "config": {}}, "beta_regularizer": null, "gamma_regularizer": null, "beta_constraint": null, "gamma_constraint": null}, "name": "block4e_project_bn", "inbound_nodes": [[["block4e_project_conv", 0, 0, {}]]]}, {"class_name": "FixedDropout", "config": {"name": "block4e_drop", "trainable": false, "dtype": "float32", "rate": 0.15000000000000002, "noise_shape": [null, 1, 1, 1], "seed": null}, "name": "block4e_drop", "inbound_nodes": [[["block4e_project_bn", 0, 0, {}]]]}, {"class_name": "Add", "config": {"name": "block4e_add", "trainable": false, "dtype": "float32"}, "name": "block4e_add", "inbound_nodes": [[["block4e_drop", 0, 0, {}], ["block4d_add", 0, 0, {}]]]}, {"class_name": "Conv2D", "config": {"name": "block5a_expand_conv", "trainable": false, "dtype": "float32", "filters": 576, "kernel_size": [1, 1], "strides": [1, 1], "padding": "same", "data_format": "channels_last", "dilation_rate": [1, 1], "activation": "linear", "use_bias": false, "kernel_initializer": {"class_name": "VarianceScaling", "config": {"scale": 2.0, "mode": "fan_out", "distribution": "truncated_normal", "seed": null}}, "bias_initializer": {"class_name": "Zeros", "config": {}}, "kernel_regularizer": null, "bias_regularizer": null, "activity_regularizer": null, "kernel_constraint": null, "bias_constraint": null}, "name": "block5a_expand_conv", "inbound_nodes": [[["block4e_add", 0, 0, {}]]]}, {"class_name": "BatchNormalization", "config": {"name": "block5a_expand_bn", "trainable": false, "dtype": "float32", "axis": [3], "momentum": 0.99, "epsilon": 0.001, "center": true, "scale": true, "beta_initializer": {"class_name": "Zeros", "config": {}}, "gamma_initializer": {"class_name": "Ones", "config": {}}, "moving_mean_initializer": {"class_name": "Zeros", "config": {}}, "moving_variance_initializer": {"class_name": "Ones", "config": {}}, "beta_regularizer": null, "gamma_regularizer": null, "beta_constraint": null, "gamma_constraint": null}, "name": "block5a_expand_bn", "inbound_nodes": [[["block5a_expand_conv", 0, 0, {}]]]}, {"class_name": "Activation", "config": {"name": "block5a_expand_activation", "trainable": false, "dtype": "float32", "activation": "swish"}, "name": "block5a_expand_activation", "inbound_nodes": [[["block5a_expand_bn", 0, 0, {}]]]}, {"class_name": "DepthwiseConv2D", "config": {"name": "block5a_dwconv", "trainable": false, "dtype": "float32", "kernel_size": [5, 5], "strides": [1, 1], "padding": "same", "data_format": "channels_last", "dilation_rate": [1, 1], "activation": "linear", "use_bias": false, "bias_initializer": {"class_name": "Zeros", "config": {}}, "bias_regularizer": null, "activity_regularizer": null, "bias_constraint": null, "depth_multiplier": 1, "depthwise_initializer": {"class_name": "VarianceScaling", "config": {"scale": 2.0, "mode": "fan_out", "distribution": "truncated_normal", "seed": null}}, "depthwise_regularizer": null, "depthwise_constraint": null}, "name": "block5a_dwconv", "inbound_nodes": [[["block5a_expand_activation", 0, 0, {}]]]}, {"class_name": "BatchNormalization", "config": {"name": "block5a_bn", "trainable": false, "dtype": "float32", "axis": [3], "momentum": 0.99, "epsilon": 0.001, "center": true, "scale": true, "beta_initializer": {"class_name": "Zeros", "config": {}}, "gamma_initializer": {"class_name": "Ones", "config": {}}, "moving_mean_initializer": {"class_name": "Zeros", "config": {}}, "moving_variance_initializer": {"class_name": "Ones", "config": {}}, "beta_regularizer": null, "gamma_regularizer": null, "beta_constraint": null, "gamma_constraint": null}, "name": "block5a_bn", "inbound_nodes": [[["block5a_dwconv", 0, 0, {}]]]}, {"class_name": "Activation", "config": {"name": "block5a_activation", "trainable": false, "dtype": "float32", "activation": "swish"}, "name": "block5a_activation", "inbound_nodes": [[["block5a_bn", 0, 0, {}]]]}, {"class_name": "GlobalAveragePooling2D", "config": {"name": "block5a_se_squeeze", "trainable": false, "dtype": "float32", "data_format": "channels_last"}, "name": "block5a_se_squeeze", "inbound_nodes": [[["block5a_activation", 0, 0, {}]]]}, {"class_name": "Reshape", "config": {"name": "block5a_se_reshape", "trainable": false, "dtype": "float32", "target_shape": [1, 1, 576]}, "name": "block5a_se_reshape", "inbound_nodes": [[["block5a_se_squeeze", 0, 0, {}]]]}, {"class_name": "Conv2D", "config": {"name": "block5a_se_reduce", "trainable": false, "dtype": "float32", "filters": 24, "kernel_size": [1, 1], "strides": [1, 1], "padding": "same", "data_format": "channels_last", "dilation_rate": [1, 1], "activation": "swish", "use_bias": true, "kernel_initializer": {"class_name": "VarianceScaling", "config": {"scale": 2.0, "mode": "fan_out", "distribution": "truncated_normal", "seed": null}}, "bias_initializer": {"class_name": "Zeros", "config": {}}, "kernel_regularizer": null, "bias_regularizer": null, "activity_regularizer": null, "kernel_constraint": null, "bias_constraint": null}, "name": "block5a_se_reduce", "inbound_nodes": [[["block5a_se_reshape", 0, 0, {}]]]}, {"class_name": "Conv2D", "config": {"name": "block5a_se_expand", "trainable": false, "dtype": "float32", "filters": 576, "kernel_size": [1, 1], "strides": [1, 1], "padding": "same", "data_format": "channels_last", "dilation_rate": [1, 1], "activation": "sigmoid", "use_bias": true, "kernel_initializer": {"class_name": "VarianceScaling", "config": {"scale": 2.0, "mode": "fan_out", "distribution": "truncated_normal", "seed": null}}, "bias_initializer": {"class_name": "Zeros", "config": {}}, "kernel_regularizer": null, "bias_regularizer": null, "activity_regularizer": null, "kernel_constraint": null, "bias_constraint": null}, "name": "block5a_se_expand", "inbound_nodes": [[["block5a_se_reduce", 0, 0, {}]]]}, {"class_name": "Multiply", "config": {"name": "block5a_se_excite", "trainable": false, "dtype": "float32"}, "name": "block5a_se_excite", "inbound_nodes": [[["block5a_activation", 0, 0, {}], ["block5a_se_expand", 0, 0, {}]]]}, {"class_name": "Conv2D", "config": {"name": "block5a_project_conv", "trainable": false, "dtype": "float32", "filters": 136, "kernel_size": [1, 1], "strides": [1, 1], "padding": "same", "data_format": "channels_last", "dilation_rate": [1, 1], "activation": "linear", "use_bias": false, "kernel_initializer": {"class_name": "VarianceScaling", "config": {"scale": 2.0, "mode": "fan_out", "distribution": "truncated_normal", "seed": null}}, "bias_initializer": {"class_name": "Zeros", "config": {}}, "kernel_regularizer": null, "bias_regularizer": null, "activity_regularizer": null, "kernel_constraint": null, "bias_constraint": null}, "name": "block5a_project_conv", "inbound_nodes": [[["block5a_se_excite", 0, 0, {}]]]}, {"class_name": "BatchNormalization", "config": {"name": "block5a_project_bn", "trainable": false, "dtype": "float32", "axis": [3], "momentum": 0.99, "epsilon": 0.001, "center": true, "scale": true, "beta_initializer": {"class_name": "Zeros", "config": {}}, "gamma_initializer": {"class_name": "Ones", "config": {}}, "moving_mean_initializer": {"class_name": "Zeros", "config": {}}, "moving_variance_initializer": {"class_name": "Ones", "config": {}}, "beta_regularizer": null, "gamma_regularizer": null, "beta_constraint": null, "gamma_constraint": null}, "name": "block5a_project_bn", "inbound_nodes": [[["block5a_project_conv", 0, 0, {}]]]}, {"class_name": "Conv2D", "config": {"name": "block5b_expand_conv", "trainable": false, "dtype": "float32", "filters": 816, "kernel_size": [1, 1], "strides": [1, 1], "padding": "same", "data_format": "channels_last", "dilation_rate": [1, 1], "activation": "linear", "use_bias": false, "kernel_initializer": {"class_name": "VarianceScaling", "config": {"scale": 2.0, "mode": "fan_out", "distribution": "truncated_normal", "seed": null}}, "bias_initializer": {"class_name": "Zeros", "config": {}}, "kernel_regularizer": null, "bias_regularizer": null, "activity_regularizer": null, "kernel_constraint": null, "bias_constraint": null}, "name": "block5b_expand_conv", "inbound_nodes": [[["block5a_project_bn", 0, 0, {}]]]}, {"class_name": "BatchNormalization", "config": {"name": "block5b_expand_bn", "trainable": false, "dtype": "float32", "axis": [3], "momentum": 0.99, "epsilon": 0.001, "center": true, "scale": true, "beta_initializer": {"class_name": "Zeros", "config": {}}, "gamma_initializer": {"class_name": "Ones", "config": {}}, "moving_mean_initializer": {"class_name": "Zeros", "config": {}}, "moving_variance_initializer": {"class_name": "Ones", "config": {}}, "beta_regularizer": null, "gamma_regularizer": null, "beta_constraint": null, "gamma_constraint": null}, "name": "block5b_expand_bn", "inbound_nodes": [[["block5b_expand_conv", 0, 0, {}]]]}, {"class_name": "Activation", "config": {"name": "block5b_expand_activation", "trainable": false, "dtype": "float32", "activation": "swish"}, "name": "block5b_expand_activation", "inbound_nodes": [[["block5b_expand_bn", 0, 0, {}]]]}, {"class_name": "DepthwiseConv2D", "config": {"name": "block5b_dwconv", "trainable": false, "dtype": "float32", "kernel_size": [5, 5], "strides": [1, 1], "padding": "same", "data_format": "channels_last", "dilation_rate": [1, 1], "activation": "linear", "use_bias": false, "bias_initializer": {"class_name": "Zeros", "config": {}}, "bias_regularizer": null, "activity_regularizer": null, "bias_constraint": null, "depth_multiplier": 1, "depthwise_initializer": {"class_name": "VarianceScaling", "config": {"scale": 2.0, "mode": "fan_out", "distribution": "truncated_normal", "seed": null}}, "depthwise_regularizer": null, "depthwise_constraint": null}, "name": "block5b_dwconv", "inbound_nodes": [[["block5b_expand_activation", 0, 0, {}]]]}, {"class_name": "BatchNormalization", "config": {"name": "block5b_bn", "trainable": false, "dtype": "float32", "axis": [3], "momentum": 0.99, "epsilon": 0.001, "center": true, "scale": true, "beta_initializer": {"class_name": "Zeros", "config": {}}, "gamma_initializer": {"class_name": "Ones", "config": {}}, "moving_mean_initializer": {"class_name": "Zeros", "config": {}}, "moving_variance_initializer": {"class_name": "Ones", "config": {}}, "beta_regularizer": null, "gamma_regularizer": null, "beta_constraint": null, "gamma_constraint": null}, "name": "block5b_bn", "inbound_nodes": [[["block5b_dwconv", 0, 0, {}]]]}, {"class_name": "Activation", "config": {"name": "block5b_activation", "trainable": false, "dtype": "float32", "activation": "swish"}, "name": "block5b_activation", "inbound_nodes": [[["block5b_bn", 0, 0, {}]]]}, {"class_name": "GlobalAveragePooling2D", "config": {"name": "block5b_se_squeeze", "trainable": false, "dtype": "float32", "data_format": "channels_last"}, "name": "block5b_se_squeeze", "inbound_nodes": [[["block5b_activation", 0, 0, {}]]]}, {"class_name": "Reshape", "config": {"name": "block5b_se_reshape", "trainable": false, "dtype": "float32", "target_shape": [1, 1, 816]}, "name": "block5b_se_reshape", "inbound_nodes": [[["block5b_se_squeeze", 0, 0, {}]]]}, {"class_name": "Conv2D", "config": {"name": "block5b_se_reduce", "trainable": false, "dtype": "float32", "filters": 34, "kernel_size": [1, 1], "strides": [1, 1], "padding": "same", "data_format": "channels_last", "dilation_rate": [1, 1], "activation": "swish", "use_bias": true, "kernel_initializer": {"class_name": "VarianceScaling", "config": {"scale": 2.0, "mode": "fan_out", "distribution": "truncated_normal", "seed": null}}, "bias_initializer": {"class_name": "Zeros", "config": {}}, "kernel_regularizer": null, "bias_regularizer": null, "activity_regularizer": null, "kernel_constraint": null, "bias_constraint": null}, "name": "block5b_se_reduce", "inbound_nodes": [[["block5b_se_reshape", 0, 0, {}]]]}, {"class_name": "Conv2D", "config": {"name": "block5b_se_expand", "trainable": false, "dtype": "float32", "filters": 816, "kernel_size": [1, 1], "strides": [1, 1], "padding": "same", "data_format": "channels_last", "dilation_rate": [1, 1], "activation": "sigmoid", "use_bias": true, "kernel_initializer": {"class_name": "VarianceScaling", "config": {"scale": 2.0, "mode": "fan_out", "distribution": "truncated_normal", "seed": null}}, "bias_initializer": {"class_name": "Zeros", "config": {}}, "kernel_regularizer": null, "bias_regularizer": null, "activity_regularizer": null, "kernel_constraint": null, "bias_constraint": null}, "name": "block5b_se_expand", "inbound_nodes": [[["block5b_se_reduce", 0, 0, {}]]]}, {"class_name": "Multiply", "config": {"name": "block5b_se_excite", "trainable": false, "dtype": "float32"}, "name": "block5b_se_excite", "inbound_nodes": [[["block5b_activation", 0, 0, {}], ["block5b_se_expand", 0, 0, {}]]]}, {"class_name": "Conv2D", "config": {"name": "block5b_project_conv", "trainable": false, "dtype": "float32", "filters": 136, "kernel_size": [1, 1], "strides": [1, 1], "padding": "same", "data_format": "channels_last", "dilation_rate": [1, 1], "activation": "linear", "use_bias": false, "kernel_initializer": {"class_name": "VarianceScaling", "config": {"scale": 2.0, "mode": "fan_out", "distribution": "truncated_normal", "seed": null}}, "bias_initializer": {"class_name": "Zeros", "config": {}}, "kernel_regularizer": null, "bias_regularizer": null, "activity_regularizer": null, "kernel_constraint": null, "bias_constraint": null}, "name": "block5b_project_conv", "inbound_nodes": [[["block5b_se_excite", 0, 0, {}]]]}, {"class_name": "BatchNormalization", "config": {"name": "block5b_project_bn", "trainable": false, "dtype": "float32", "axis": [3], "momentum": 0.99, "epsilon": 0.001, "center": true, "scale": true, "beta_initializer": {"class_name": "Zeros", "config": {}}, "gamma_initializer": {"class_name": "Ones", "config": {}}, "moving_mean_initializer": {"class_name": "Zeros", "config": {}}, "moving_variance_initializer": {"class_name": "Ones", "config": {}}, "beta_regularizer": null, "gamma_regularizer": null, "beta_constraint": null, "gamma_constraint": null}, "name": "block5b_project_bn", "inbound_nodes": [[["block5b_project_conv", 0, 0, {}]]]}, {"class_name": "FixedDropout", "config": {"name": "block5b_drop", "trainable": false, "dtype": "float32", "rate": 0.17500000000000002, "noise_shape": [null, 1, 1, 1], "seed": null}, "name": "block5b_drop", "inbound_nodes": [[["block5b_project_bn", 0, 0, {}]]]}, {"class_name": "Add", "config": {"name": "block5b_add", "trainable": false, "dtype": "float32"}, "name": "block5b_add", "inbound_nodes": [[["block5b_drop", 0, 0, {}], ["block5a_project_bn", 0, 0, {}]]]}, {"class_name": "Conv2D", "config": {"name": "block5c_expand_conv", "trainable": false, "dtype": "float32", "filters": 816, "kernel_size": [1, 1], "strides": [1, 1], "padding": "same", "data_format": "channels_last", "dilation_rate": [1, 1], "activation": "linear", "use_bias": false, "kernel_initializer": {"class_name": "VarianceScaling", "config": {"scale": 2.0, "mode": "fan_out", "distribution": "truncated_normal", "seed": null}}, "bias_initializer": {"class_name": "Zeros", "config": {}}, "kernel_regularizer": null, "bias_regularizer": null, "activity_regularizer": null, "kernel_constraint": null, "bias_constraint": null}, "name": "block5c_expand_conv", "inbound_nodes": [[["block5b_add", 0, 0, {}]]]}, {"class_name": "BatchNormalization", "config": {"name": "block5c_expand_bn", "trainable": false, "dtype": "float32", "axis": [3], "momentum": 0.99, "epsilon": 0.001, "center": true, "scale": true, "beta_initializer": {"class_name": "Zeros", "config": {}}, "gamma_initializer": {"class_name": "Ones", "config": {}}, "moving_mean_initializer": {"class_name": "Zeros", "config": {}}, "moving_variance_initializer": {"class_name": "Ones", "config": {}}, "beta_regularizer": null, "gamma_regularizer": null, "beta_constraint": null, "gamma_constraint": null}, "name": "block5c_expand_bn", "inbound_nodes": [[["block5c_expand_conv", 0, 0, {}]]]}, {"class_name": "Activation", "config": {"name": "block5c_expand_activation", "trainable": false, "dtype": "float32", "activation": "swish"}, "name": "block5c_expand_activation", "inbound_nodes": [[["block5c_expand_bn", 0, 0, {}]]]}, {"class_name": "DepthwiseConv2D", "config": {"name": "block5c_dwconv", "trainable": false, "dtype": "float32", "kernel_size": [5, 5], "strides": [1, 1], "padding": "same", "data_format": "channels_last", "dilation_rate": [1, 1], "activation": "linear", "use_bias": false, "bias_initializer": {"class_name": "Zeros", "config": {}}, "bias_regularizer": null, "activity_regularizer": null, "bias_constraint": null, "depth_multiplier": 1, "depthwise_initializer": {"class_name": "VarianceScaling", "config": {"scale": 2.0, "mode": "fan_out", "distribution": "truncated_normal", "seed": null}}, "depthwise_regularizer": null, "depthwise_constraint": null}, "name": "block5c_dwconv", "inbound_nodes": [[["block5c_expand_activation", 0, 0, {}]]]}, {"class_name": "BatchNormalization", "config": {"name": "block5c_bn", "trainable": false, "dtype": "float32", "axis": [3], "momentum": 0.99, "epsilon": 0.001, "center": true, "scale": true, "beta_initializer": {"class_name": "Zeros", "config": {}}, "gamma_initializer": {"class_name": "Ones", "config": {}}, "moving_mean_initializer": {"class_name": "Zeros", "config": {}}, "moving_variance_initializer": {"class_name": "Ones", "config": {}}, "beta_regularizer": null, "gamma_regularizer": null, "beta_constraint": null, "gamma_constraint": null}, "name": "block5c_bn", "inbound_nodes": [[["block5c_dwconv", 0, 0, {}]]]}, {"class_name": "Activation", "config": {"name": "block5c_activation", "trainable": false, "dtype": "float32", "activation": "swish"}, "name": "block5c_activation", "inbound_nodes": [[["block5c_bn", 0, 0, {}]]]}, {"class_name": "GlobalAveragePooling2D", "config": {"name": "block5c_se_squeeze", "trainable": false, "dtype": "float32", "data_format": "channels_last"}, "name": "block5c_se_squeeze", "inbound_nodes": [[["block5c_activation", 0, 0, {}]]]}, {"class_name": "Reshape", "config": {"name": "block5c_se_reshape", "trainable": false, "dtype": "float32", "target_shape": [1, 1, 816]}, "name": "block5c_se_reshape", "inbound_nodes": [[["block5c_se_squeeze", 0, 0, {}]]]}, {"class_name": "Conv2D", "config": {"name": "block5c_se_reduce", "trainable": false, "dtype": "float32", "filters": 34, "kernel_size": [1, 1], "strides": [1, 1], "padding": "same", "data_format": "channels_last", "dilation_rate": [1, 1], "activation": "swish", "use_bias": true, "kernel_initializer": {"class_name": "VarianceScaling", "config": {"scale": 2.0, "mode": "fan_out", "distribution": "truncated_normal", "seed": null}}, "bias_initializer": {"class_name": "Zeros", "config": {}}, "kernel_regularizer": null, "bias_regularizer": null, "activity_regularizer": null, "kernel_constraint": null, "bias_constraint": null}, "name": "block5c_se_reduce", "inbound_nodes": [[["block5c_se_reshape", 0, 0, {}]]]}, {"class_name": "Conv2D", "config": {"name": "block5c_se_expand", "trainable": false, "dtype": "float32", "filters": 816, "kernel_size": [1, 1], "strides": [1, 1], "padding": "same", "data_format": "channels_last", "dilation_rate": [1, 1], "activation": "sigmoid", "use_bias": true, "kernel_initializer": {"class_name": "VarianceScaling", "config": {"scale": 2.0, "mode": "fan_out", "distribution": "truncated_normal", "seed": null}}, "bias_initializer": {"class_name": "Zeros", "config": {}}, "kernel_regularizer": null, "bias_regularizer": null, "activity_regularizer": null, "kernel_constraint": null, "bias_constraint": null}, "name": "block5c_se_expand", "inbound_nodes": [[["block5c_se_reduce", 0, 0, {}]]]}, {"class_name": "Multiply", "config": {"name": "block5c_se_excite", "trainable": false, "dtype": "float32"}, "name": "block5c_se_excite", "inbound_nodes": [[["block5c_activation", 0, 0, {}], ["block5c_se_expand", 0, 0, {}]]]}, {"class_name": "Conv2D", "config": {"name": "block5c_project_conv", "trainable": false, "dtype": "float32", "filters": 136, "kernel_size": [1, 1], "strides": [1, 1], "padding": "same", "data_format": "channels_last", "dilation_rate": [1, 1], "activation": "linear", "use_bias": false, "kernel_initializer": {"class_name": "VarianceScaling", "config": {"scale": 2.0, "mode": "fan_out", "distribution": "truncated_normal", "seed": null}}, "bias_initializer": {"class_name": "Zeros", "config": {}}, "kernel_regularizer": null, "bias_regularizer": null, "activity_regularizer": null, "kernel_constraint": null, "bias_constraint": null}, "name": "block5c_project_conv", "inbound_nodes": [[["block5c_se_excite", 0, 0, {}]]]}, {"class_name": "BatchNormalization", "config": {"name": "block5c_project_bn", "trainable": false, "dtype": "float32", "axis": [3], "momentum": 0.99, "epsilon": 0.001, "center": true, "scale": true, "beta_initializer": {"class_name": "Zeros", "config": {}}, "gamma_initializer": {"class_name": "Ones", "config": {}}, "moving_mean_initializer": {"class_name": "Zeros", "config": {}}, "moving_variance_initializer": {"class_name": "Ones", "config": {}}, "beta_regularizer": null, "gamma_regularizer": null, "beta_constraint": null, "gamma_constraint": null}, "name": "block5c_project_bn", "inbound_nodes": [[["block5c_project_conv", 0, 0, {}]]]}, {"class_name": "FixedDropout", "config": {"name": "block5c_drop", "trainable": false, "dtype": "float32", "rate": 0.1875, "noise_shape": [null, 1, 1, 1], "seed": null}, "name": "block5c_drop", "inbound_nodes": [[["block5c_project_bn", 0, 0, {}]]]}, {"class_name": "Add", "config": {"name": "block5c_add", "trainable": false, "dtype": "float32"}, "name": "block5c_add", "inbound_nodes": [[["block5c_drop", 0, 0, {}], ["block5b_add", 0, 0, {}]]]}, {"class_name": "Conv2D", "config": {"name": "block5d_expand_conv", "trainable": false, "dtype": "float32", "filters": 816, "kernel_size": [1, 1], "strides": [1, 1], "padding": "same", "data_format": "channels_last", "dilation_rate": [1, 1], "activation": "linear", "use_bias": false, "kernel_initializer": {"class_name": "VarianceScaling", "config": {"scale": 2.0, "mode": "fan_out", "distribution": "truncated_normal", "seed": null}}, "bias_initializer": {"class_name": "Zeros", "config": {}}, "kernel_regularizer": null, "bias_regularizer": null, "activity_regularizer": null, "kernel_constraint": null, "bias_constraint": null}, "name": "block5d_expand_conv", "inbound_nodes": [[["block5c_add", 0, 0, {}]]]}, {"class_name": "BatchNormalization", "config": {"name": "block5d_expand_bn", "trainable": false, "dtype": "float32", "axis": [3], "momentum": 0.99, "epsilon": 0.001, "center": true, "scale": true, "beta_initializer": {"class_name": "Zeros", "config": {}}, "gamma_initializer": {"class_name": "Ones", "config": {}}, "moving_mean_initializer": {"class_name": "Zeros", "config": {}}, "moving_variance_initializer": {"class_name": "Ones", "config": {}}, "beta_regularizer": null, "gamma_regularizer": null, "beta_constraint": null, "gamma_constraint": null}, "name": "block5d_expand_bn", "inbound_nodes": [[["block5d_expand_conv", 0, 0, {}]]]}, {"class_name": "Activation", "config": {"name": "block5d_expand_activation", "trainable": false, "dtype": "float32", "activation": "swish"}, "name": "block5d_expand_activation", "inbound_nodes": [[["block5d_expand_bn", 0, 0, {}]]]}, {"class_name": "DepthwiseConv2D", "config": {"name": "block5d_dwconv", "trainable": false, "dtype": "float32", "kernel_size": [5, 5], "strides": [1, 1], "padding": "same", "data_format": "channels_last", "dilation_rate": [1, 1], "activation": "linear", "use_bias": false, "bias_initializer": {"class_name": "Zeros", "config": {}}, "bias_regularizer": null, "activity_regularizer": null, "bias_constraint": null, "depth_multiplier": 1, "depthwise_initializer": {"class_name": "VarianceScaling", "config": {"scale": 2.0, "mode": "fan_out", "distribution": "truncated_normal", "seed": null}}, "depthwise_regularizer": null, "depthwise_constraint": null}, "name": "block5d_dwconv", "inbound_nodes": [[["block5d_expand_activation", 0, 0, {}]]]}, {"class_name": "BatchNormalization", "config": {"name": "block5d_bn", "trainable": false, "dtype": "float32", "axis": [3], "momentum": 0.99, "epsilon": 0.001, "center": true, "scale": true, "beta_initializer": {"class_name": "Zeros", "config": {}}, "gamma_initializer": {"class_name": "Ones", "config": {}}, "moving_mean_initializer": {"class_name": "Zeros", "config": {}}, "moving_variance_initializer": {"class_name": "Ones", "config": {}}, "beta_regularizer": null, "gamma_regularizer": null, "beta_constraint": null, "gamma_constraint": null}, "name": "block5d_bn", "inbound_nodes": [[["block5d_dwconv", 0, 0, {}]]]}, {"class_name": "Activation", "config": {"name": "block5d_activation", "trainable": false, "dtype": "float32", "activation": "swish"}, "name": "block5d_activation", "inbound_nodes": [[["block5d_bn", 0, 0, {}]]]}, {"class_name": "GlobalAveragePooling2D", "config": {"name": "block5d_se_squeeze", "trainable": false, "dtype": "float32", "data_format": "channels_last"}, "name": "block5d_se_squeeze", "inbound_nodes": [[["block5d_activation", 0, 0, {}]]]}, {"class_name": "Reshape", "config": {"name": "block5d_se_reshape", "trainable": false, "dtype": "float32", "target_shape": [1, 1, 816]}, "name": "block5d_se_reshape", "inbound_nodes": [[["block5d_se_squeeze", 0, 0, {}]]]}, {"class_name": "Conv2D", "config": {"name": "block5d_se_reduce", "trainable": false, "dtype": "float32", "filters": 34, "kernel_size": [1, 1], "strides": [1, 1], "padding": "same", "data_format": "channels_last", "dilation_rate": [1, 1], "activation": "swish", "use_bias": true, "kernel_initializer": {"class_name": "VarianceScaling", "config": {"scale": 2.0, "mode": "fan_out", "distribution": "truncated_normal", "seed": null}}, "bias_initializer": {"class_name": "Zeros", "config": {}}, "kernel_regularizer": null, "bias_regularizer": null, "activity_regularizer": null, "kernel_constraint": null, "bias_constraint": null}, "name": "block5d_se_reduce", "inbound_nodes": [[["block5d_se_reshape", 0, 0, {}]]]}, {"class_name": "Conv2D", "config": {"name": "block5d_se_expand", "trainable": false, "dtype": "float32", "filters": 816, "kernel_size": [1, 1], "strides": [1, 1], "padding": "same", "data_format": "channels_last", "dilation_rate": [1, 1], "activation": "sigmoid", "use_bias": true, "kernel_initializer": {"class_name": "VarianceScaling", "config": {"scale": 2.0, "mode": "fan_out", "distribution": "truncated_normal", "seed": null}}, "bias_initializer": {"class_name": "Zeros", "config": {}}, "kernel_regularizer": null, "bias_regularizer": null, "activity_regularizer": null, "kernel_constraint": null, "bias_constraint": null}, "name": "block5d_se_expand", "inbound_nodes": [[["block5d_se_reduce", 0, 0, {}]]]}, {"class_name": "Multiply", "config": {"name": "block5d_se_excite", "trainable": false, "dtype": "float32"}, "name": "block5d_se_excite", "inbound_nodes": [[["block5d_activation", 0, 0, {}], ["block5d_se_expand", 0, 0, {}]]]}, {"class_name": "Conv2D", "config": {"name": "block5d_project_conv", "trainable": false, "dtype": "float32", "filters": 136, "kernel_size": [1, 1], "strides": [1, 1], "padding": "same", "data_format": "channels_last", "dilation_rate": [1, 1], "activation": "linear", "use_bias": false, "kernel_initializer": {"class_name": "VarianceScaling", "config": {"scale": 2.0, "mode": "fan_out", "distribution": "truncated_normal", "seed": null}}, "bias_initializer": {"class_name": "Zeros", "config": {}}, "kernel_regularizer": null, "bias_regularizer": null, "activity_regularizer": null, "kernel_constraint": null, "bias_constraint": null}, "name": "block5d_project_conv", "inbound_nodes": [[["block5d_se_excite", 0, 0, {}]]]}, {"class_name": "BatchNormalization", "config": {"name": "block5d_project_bn", "trainable": false, "dtype": "float32", "axis": [3], "momentum": 0.99, "epsilon": 0.001, "center": true, "scale": true, "beta_initializer": {"class_name": "Zeros", "config": {}}, "gamma_initializer": {"class_name": "Ones", "config": {}}, "moving_mean_initializer": {"class_name": "Zeros", "config": {}}, "moving_variance_initializer": {"class_name": "Ones", "config": {}}, "beta_regularizer": null, "gamma_regularizer": null, "beta_constraint": null, "gamma_constraint": null}, "name": "block5d_project_bn", "inbound_nodes": [[["block5d_project_conv", 0, 0, {}]]]}, {"class_name": "FixedDropout", "config": {"name": "block5d_drop", "trainable": false, "dtype": "float32", "rate": 0.2, "noise_shape": [null, 1, 1, 1], "seed": null}, "name": "block5d_drop", "inbound_nodes": [[["block5d_project_bn", 0, 0, {}]]]}, {"class_name": "Add", "config": {"name": "block5d_add", "trainable": false, "dtype": "float32"}, "name": "block5d_add", "inbound_nodes": [[["block5d_drop", 0, 0, {}], ["block5c_add", 0, 0, {}]]]}, {"class_name": "Conv2D", "config": {"name": "block5e_expand_conv", "trainable": false, "dtype": "float32", "filters": 816, "kernel_size": [1, 1], "strides": [1, 1], "padding": "same", "data_format": "channels_last", "dilation_rate": [1, 1], "activation": "linear", "use_bias": false, "kernel_initializer": {"class_name": "VarianceScaling", "config": {"scale": 2.0, "mode": "fan_out", "distribution": "truncated_normal", "seed": null}}, "bias_initializer": {"class_name": "Zeros", "config": {}}, "kernel_regularizer": null, "bias_regularizer": null, "activity_regularizer": null, "kernel_constraint": null, "bias_constraint": null}, "name": "block5e_expand_conv", "inbound_nodes": [[["block5d_add", 0, 0, {}]]]}, {"class_name": "BatchNormalization", "config": {"name": "block5e_expand_bn", "trainable": false, "dtype": "float32", "axis": [3], "momentum": 0.99, "epsilon": 0.001, "center": true, "scale": true, "beta_initializer": {"class_name": "Zeros", "config": {}}, "gamma_initializer": {"class_name": "Ones", "config": {}}, "moving_mean_initializer": {"class_name": "Zeros", "config": {}}, "moving_variance_initializer": {"class_name": "Ones", "config": {}}, "beta_regularizer": null, "gamma_regularizer": null, "beta_constraint": null, "gamma_constraint": null}, "name": "block5e_expand_bn", "inbound_nodes": [[["block5e_expand_conv", 0, 0, {}]]]}, {"class_name": "Activation", "config": {"name": "block5e_expand_activation", "trainable": false, "dtype": "float32", "activation": "swish"}, "name": "block5e_expand_activation", "inbound_nodes": [[["block5e_expand_bn", 0, 0, {}]]]}, {"class_name": "DepthwiseConv2D", "config": {"name": "block5e_dwconv", "trainable": false, "dtype": "float32", "kernel_size": [5, 5], "strides": [1, 1], "padding": "same", "data_format": "channels_last", "dilation_rate": [1, 1], "activation": "linear", "use_bias": false, "bias_initializer": {"class_name": "Zeros", "config": {}}, "bias_regularizer": null, "activity_regularizer": null, "bias_constraint": null, "depth_multiplier": 1, "depthwise_initializer": {"class_name": "VarianceScaling", "config": {"scale": 2.0, "mode": "fan_out", "distribution": "truncated_normal", "seed": null}}, "depthwise_regularizer": null, "depthwise_constraint": null}, "name": "block5e_dwconv", "inbound_nodes": [[["block5e_expand_activation", 0, 0, {}]]]}, {"class_name": "BatchNormalization", "config": {"name": "block5e_bn", "trainable": false, "dtype": "float32", "axis": [3], "momentum": 0.99, "epsilon": 0.001, "center": true, "scale": true, "beta_initializer": {"class_name": "Zeros", "config": {}}, "gamma_initializer": {"class_name": "Ones", "config": {}}, "moving_mean_initializer": {"class_name": "Zeros", "config": {}}, "moving_variance_initializer": {"class_name": "Ones", "config": {}}, "beta_regularizer": null, "gamma_regularizer": null, "beta_constraint": null, "gamma_constraint": null}, "name": "block5e_bn", "inbound_nodes": [[["block5e_dwconv", 0, 0, {}]]]}, {"class_name": "Activation", "config": {"name": "block5e_activation", "trainable": false, "dtype": "float32", "activation": "swish"}, "name": "block5e_activation", "inbound_nodes": [[["block5e_bn", 0, 0, {}]]]}, {"class_name": "GlobalAveragePooling2D", "config": {"name": "block5e_se_squeeze", "trainable": false, "dtype": "float32", "data_format": "channels_last"}, "name": "block5e_se_squeeze", "inbound_nodes": [[["block5e_activation", 0, 0, {}]]]}, {"class_name": "Reshape", "config": {"name": "block5e_se_reshape", "trainable": false, "dtype": "float32", "target_shape": [1, 1, 816]}, "name": "block5e_se_reshape", "inbound_nodes": [[["block5e_se_squeeze", 0, 0, {}]]]}, {"class_name": "Conv2D", "config": {"name": "block5e_se_reduce", "trainable": false, "dtype": "float32", "filters": 34, "kernel_size": [1, 1], "strides": [1, 1], "padding": "same", "data_format": "channels_last", "dilation_rate": [1, 1], "activation": "swish", "use_bias": true, "kernel_initializer": {"class_name": "VarianceScaling", "config": {"scale": 2.0, "mode": "fan_out", "distribution": "truncated_normal", "seed": null}}, "bias_initializer": {"class_name": "Zeros", "config": {}}, "kernel_regularizer": null, "bias_regularizer": null, "activity_regularizer": null, "kernel_constraint": null, "bias_constraint": null}, "name": "block5e_se_reduce", "inbound_nodes": [[["block5e_se_reshape", 0, 0, {}]]]}, {"class_name": "Conv2D", "config": {"name": "block5e_se_expand", "trainable": false, "dtype": "float32", "filters": 816, "kernel_size": [1, 1], "strides": [1, 1], "padding": "same", "data_format": "channels_last", "dilation_rate": [1, 1], "activation": "sigmoid", "use_bias": true, "kernel_initializer": {"class_name": "VarianceScaling", "config": {"scale": 2.0, "mode": "fan_out", "distribution": "truncated_normal", "seed": null}}, "bias_initializer": {"class_name": "Zeros", "config": {}}, "kernel_regularizer": null, "bias_regularizer": null, "activity_regularizer": null, "kernel_constraint": null, "bias_constraint": null}, "name": "block5e_se_expand", "inbound_nodes": [[["block5e_se_reduce", 0, 0, {}]]]}, {"class_name": "Multiply", "config": {"name": "block5e_se_excite", "trainable": false, "dtype": "float32"}, "name": "block5e_se_excite", "inbound_nodes": [[["block5e_activation", 0, 0, {}], ["block5e_se_expand", 0, 0, {}]]]}, {"class_name": "Conv2D", "config": {"name": "block5e_project_conv", "trainable": false, "dtype": "float32", "filters": 136, "kernel_size": [1, 1], "strides": [1, 1], "padding": "same", "data_format": "channels_last", "dilation_rate": [1, 1], "activation": "linear", "use_bias": false, "kernel_initializer": {"class_name": "VarianceScaling", "config": {"scale": 2.0, "mode": "fan_out", "distribution": "truncated_normal", "seed": null}}, "bias_initializer": {"class_name": "Zeros", "config": {}}, "kernel_regularizer": null, "bias_regularizer": null, "activity_regularizer": null, "kernel_constraint": null, "bias_constraint": null}, "name": "block5e_project_conv", "inbound_nodes": [[["block5e_se_excite", 0, 0, {}]]]}, {"class_name": "BatchNormalization", "config": {"name": "block5e_project_bn", "trainable": false, "dtype": "float32", "axis": [3], "momentum": 0.99, "epsilon": 0.001, "center": true, "scale": true, "beta_initializer": {"class_name": "Zeros", "config": {}}, "gamma_initializer": {"class_name": "Ones", "config": {}}, "moving_mean_initializer": {"class_name": "Zeros", "config": {}}, "moving_variance_initializer": {"class_name": "Ones", "config": {}}, "beta_regularizer": null, "gamma_regularizer": null, "beta_constraint": null, "gamma_constraint": null}, "name": "block5e_project_bn", "inbound_nodes": [[["block5e_project_conv", 0, 0, {}]]]}, {"class_name": "FixedDropout", "config": {"name": "block5e_drop", "trainable": false, "dtype": "float32", "rate": 0.21250000000000002, "noise_shape": [null, 1, 1, 1], "seed": null}, "name": "block5e_drop", "inbound_nodes": [[["block5e_project_bn", 0, 0, {}]]]}, {"class_name": "Add", "config": {"name": "block5e_add", "trainable": false, "dtype": "float32"}, "name": "block5e_add", "inbound_nodes": [[["block5e_drop", 0, 0, {}], ["block5d_add", 0, 0, {}]]]}, {"class_name": "Conv2D", "config": {"name": "block6a_expand_conv", "trainable": false, "dtype": "float32", "filters": 816, "kernel_size": [1, 1], "strides": [1, 1], "padding": "same", "data_format": "channels_last", "dilation_rate": [1, 1], "activation": "linear", "use_bias": false, "kernel_initializer": {"class_name": "VarianceScaling", "config": {"scale": 2.0, "mode": "fan_out", "distribution": "truncated_normal", "seed": null}}, "bias_initializer": {"class_name": "Zeros", "config": {}}, "kernel_regularizer": null, "bias_regularizer": null, "activity_regularizer": null, "kernel_constraint": null, "bias_constraint": null}, "name": "block6a_expand_conv", "inbound_nodes": [[["block5e_add", 0, 0, {}]]]}, {"class_name": "BatchNormalization", "config": {"name": "block6a_expand_bn", "trainable": false, "dtype": "float32", "axis": [3], "momentum": 0.99, "epsilon": 0.001, "center": true, "scale": true, "beta_initializer": {"class_name": "Zeros", "config": {}}, "gamma_initializer": {"class_name": "Ones", "config": {}}, "moving_mean_initializer": {"class_name": "Zeros", "config": {}}, "moving_variance_initializer": {"class_name": "Ones", "config": {}}, "beta_regularizer": null, "gamma_regularizer": null, "beta_constraint": null, "gamma_constraint": null}, "name": "block6a_expand_bn", "inbound_nodes": [[["block6a_expand_conv", 0, 0, {}]]]}, {"class_name": "Activation", "config": {"name": "block6a_expand_activation", "trainable": false, "dtype": "float32", "activation": "swish"}, "name": "block6a_expand_activation", "inbound_nodes": [[["block6a_expand_bn", 0, 0, {}]]]}, {"class_name": "DepthwiseConv2D", "config": {"name": "block6a_dwconv", "trainable": false, "dtype": "float32", "kernel_size": [5, 5], "strides": [2, 2], "padding": "same", "data_format": "channels_last", "dilation_rate": [1, 1], "activation": "linear", "use_bias": false, "bias_initializer": {"class_name": "Zeros", "config": {}}, "bias_regularizer": null, "activity_regularizer": null, "bias_constraint": null, "depth_multiplier": 1, "depthwise_initializer": {"class_name": "VarianceScaling", "config": {"scale": 2.0, "mode": "fan_out", "distribution": "truncated_normal", "seed": null}}, "depthwise_regularizer": null, "depthwise_constraint": null}, "name": "block6a_dwconv", "inbound_nodes": [[["block6a_expand_activation", 0, 0, {}]]]}, {"class_name": "BatchNormalization", "config": {"name": "block6a_bn", "trainable": false, "dtype": "float32", "axis": [3], "momentum": 0.99, "epsilon": 0.001, "center": true, "scale": true, "beta_initializer": {"class_name": "Zeros", "config": {}}, "gamma_initializer": {"class_name": "Ones", "config": {}}, "moving_mean_initializer": {"class_name": "Zeros", "config": {}}, "moving_variance_initializer": {"class_name": "Ones", "config": {}}, "beta_regularizer": null, "gamma_regularizer": null, "beta_constraint": null, "gamma_constraint": null}, "name": "block6a_bn", "inbound_nodes": [[["block6a_dwconv", 0, 0, {}]]]}, {"class_name": "Activation", "config": {"name": "block6a_activation", "trainable": false, "dtype": "float32", "activation": "swish"}, "name": "block6a_activation", "inbound_nodes": [[["block6a_bn", 0, 0, {}]]]}, {"class_name": "GlobalAveragePooling2D", "config": {"name": "block6a_se_squeeze", "trainable": false, "dtype": "float32", "data_format": "channels_last"}, "name": "block6a_se_squeeze", "inbound_nodes": [[["block6a_activation", 0, 0, {}]]]}, {"class_name": "Reshape", "config": {"name": "block6a_se_reshape", "trainable": false, "dtype": "float32", "target_shape": [1, 1, 816]}, "name": "block6a_se_reshape", "inbound_nodes": [[["block6a_se_squeeze", 0, 0, {}]]]}, {"class_name": "Conv2D", "config": {"name": "block6a_se_reduce", "trainable": false, "dtype": "float32", "filters": 34, "kernel_size": [1, 1], "strides": [1, 1], "padding": "same", "data_format": "channels_last", "dilation_rate": [1, 1], "activation": "swish", "use_bias": true, "kernel_initializer": {"class_name": "VarianceScaling", "config": {"scale": 2.0, "mode": "fan_out", "distribution": "truncated_normal", "seed": null}}, "bias_initializer": {"class_name": "Zeros", "config": {}}, "kernel_regularizer": null, "bias_regularizer": null, "activity_regularizer": null, "kernel_constraint": null, "bias_constraint": null}, "name": "block6a_se_reduce", "inbound_nodes": [[["block6a_se_reshape", 0, 0, {}]]]}, {"class_name": "Conv2D", "config": {"name": "block6a_se_expand", "trainable": false, "dtype": "float32", "filters": 816, "kernel_size": [1, 1], "strides": [1, 1], "padding": "same", "data_format": "channels_last", "dilation_rate": [1, 1], "activation": "sigmoid", "use_bias": true, "kernel_initializer": {"class_name": "VarianceScaling", "config": {"scale": 2.0, "mode": "fan_out", "distribution": "truncated_normal", "seed": null}}, "bias_initializer": {"class_name": "Zeros", "config": {}}, "kernel_regularizer": null, "bias_regularizer": null, "activity_regularizer": null, "kernel_constraint": null, "bias_constraint": null}, "name": "block6a_se_expand", "inbound_nodes": [[["block6a_se_reduce", 0, 0, {}]]]}, {"class_name": "Multiply", "config": {"name": "block6a_se_excite", "trainable": false, "dtype": "float32"}, "name": "block6a_se_excite", "inbound_nodes": [[["block6a_activation", 0, 0, {}], ["block6a_se_expand", 0, 0, {}]]]}, {"class_name": "Conv2D", "config": {"name": "block6a_project_conv", "trainable": false, "dtype": "float32", "filters": 232, "kernel_size": [1, 1], "strides": [1, 1], "padding": "same", "data_format": "channels_last", "dilation_rate": [1, 1], "activation": "linear", "use_bias": false, "kernel_initializer": {"class_name": "VarianceScaling", "config": {"scale": 2.0, "mode": "fan_out", "distribution": "truncated_normal", "seed": null}}, "bias_initializer": {"class_name": "Zeros", "config": {}}, "kernel_regularizer": null, "bias_regularizer": null, "activity_regularizer": null, "kernel_constraint": null, "bias_constraint": null}, "name": "block6a_project_conv", "inbound_nodes": [[["block6a_se_excite", 0, 0, {}]]]}, {"class_name": "BatchNormalization", "config": {"name": "block6a_project_bn", "trainable": false, "dtype": "float32", "axis": [3], "momentum": 0.99, "epsilon": 0.001, "center": true, "scale": true, "beta_initializer": {"class_name": "Zeros", "config": {}}, "gamma_initializer": {"class_name": "Ones", "config": {}}, "moving_mean_initializer": {"class_name": "Zeros", "config": {}}, "moving_variance_initializer": {"class_name": "Ones", "config": {}}, "beta_regularizer": null, "gamma_regularizer": null, "beta_constraint": null, "gamma_constraint": null}, "name": "block6a_project_bn", "inbound_nodes": [[["block6a_project_conv", 0, 0, {}]]]}, {"class_name": "Conv2D", "config": {"name": "block6b_expand_conv", "trainable": false, "dtype": "float32", "filters": 1392, "kernel_size": [1, 1], "strides": [1, 1], "padding": "same", "data_format": "channels_last", "dilation_rate": [1, 1], "activation": "linear", "use_bias": false, "kernel_initializer": {"class_name": "VarianceScaling", "config": {"scale": 2.0, "mode": "fan_out", "distribution": "truncated_normal", "seed": null}}, "bias_initializer": {"class_name": "Zeros", "config": {}}, "kernel_regularizer": null, "bias_regularizer": null, "activity_regularizer": null, "kernel_constraint": null, "bias_constraint": null}, "name": "block6b_expand_conv", "inbound_nodes": [[["block6a_project_bn", 0, 0, {}]]]}, {"class_name": "BatchNormalization", "config": {"name": "block6b_expand_bn", "trainable": false, "dtype": "float32", "axis": [3], "momentum": 0.99, "epsilon": 0.001, "center": true, "scale": true, "beta_initializer": {"class_name": "Zeros", "config": {}}, "gamma_initializer": {"class_name": "Ones", "config": {}}, "moving_mean_initializer": {"class_name": "Zeros", "config": {}}, "moving_variance_initializer": {"class_name": "Ones", "config": {}}, "beta_regularizer": null, "gamma_regularizer": null, "beta_constraint": null, "gamma_constraint": null}, "name": "block6b_expand_bn", "inbound_nodes": [[["block6b_expand_conv", 0, 0, {}]]]}, {"class_name": "Activation", "config": {"name": "block6b_expand_activation", "trainable": false, "dtype": "float32", "activation": "swish"}, "name": "block6b_expand_activation", "inbound_nodes": [[["block6b_expand_bn", 0, 0, {}]]]}, {"class_name": "DepthwiseConv2D", "config": {"name": "block6b_dwconv", "trainable": false, "dtype": "float32", "kernel_size": [5, 5], "strides": [1, 1], "padding": "same", "data_format": "channels_last", "dilation_rate": [1, 1], "activation": "linear", "use_bias": false, "bias_initializer": {"class_name": "Zeros", "config": {}}, "bias_regularizer": null, "activity_regularizer": null, "bias_constraint": null, "depth_multiplier": 1, "depthwise_initializer": {"class_name": "VarianceScaling", "config": {"scale": 2.0, "mode": "fan_out", "distribution": "truncated_normal", "seed": null}}, "depthwise_regularizer": null, "depthwise_constraint": null}, "name": "block6b_dwconv", "inbound_nodes": [[["block6b_expand_activation", 0, 0, {}]]]}, {"class_name": "BatchNormalization", "config": {"name": "block6b_bn", "trainable": false, "dtype": "float32", "axis": [3], "momentum": 0.99, "epsilon": 0.001, "center": true, "scale": true, "beta_initializer": {"class_name": "Zeros", "config": {}}, "gamma_initializer": {"class_name": "Ones", "config": {}}, "moving_mean_initializer": {"class_name": "Zeros", "config": {}}, "moving_variance_initializer": {"class_name": "Ones", "config": {}}, "beta_regularizer": null, "gamma_regularizer": null, "beta_constraint": null, "gamma_constraint": null}, "name": "block6b_bn", "inbound_nodes": [[["block6b_dwconv", 0, 0, {}]]]}, {"class_name": "Activation", "config": {"name": "block6b_activation", "trainable": false, "dtype": "float32", "activation": "swish"}, "name": "block6b_activation", "inbound_nodes": [[["block6b_bn", 0, 0, {}]]]}, {"class_name": "GlobalAveragePooling2D", "config": {"name": "block6b_se_squeeze", "trainable": false, "dtype": "float32", "data_format": "channels_last"}, "name": "block6b_se_squeeze", "inbound_nodes": [[["block6b_activation", 0, 0, {}]]]}, {"class_name": "Reshape", "config": {"name": "block6b_se_reshape", "trainable": false, "dtype": "float32", "target_shape": [1, 1, 1392]}, "name": "block6b_se_reshape", "inbound_nodes": [[["block6b_se_squeeze", 0, 0, {}]]]}, {"class_name": "Conv2D", "config": {"name": "block6b_se_reduce", "trainable": false, "dtype": "float32", "filters": 58, "kernel_size": [1, 1], "strides": [1, 1], "padding": "same", "data_format": "channels_last", "dilation_rate": [1, 1], "activation": "swish", "use_bias": true, "kernel_initializer": {"class_name": "VarianceScaling", "config": {"scale": 2.0, "mode": "fan_out", "distribution": "truncated_normal", "seed": null}}, "bias_initializer": {"class_name": "Zeros", "config": {}}, "kernel_regularizer": null, "bias_regularizer": null, "activity_regularizer": null, "kernel_constraint": null, "bias_constraint": null}, "name": "block6b_se_reduce", "inbound_nodes": [[["block6b_se_reshape", 0, 0, {}]]]}, {"class_name": "Conv2D", "config": {"name": "block6b_se_expand", "trainable": false, "dtype": "float32", "filters": 1392, "kernel_size": [1, 1], "strides": [1, 1], "padding": "same", "data_format": "channels_last", "dilation_rate": [1, 1], "activation": "sigmoid", "use_bias": true, "kernel_initializer": {"class_name": "VarianceScaling", "config": {"scale": 2.0, "mode": "fan_out", "distribution": "truncated_normal", "seed": null}}, "bias_initializer": {"class_name": "Zeros", "config": {}}, "kernel_regularizer": null, "bias_regularizer": null, "activity_regularizer": null, "kernel_constraint": null, "bias_constraint": null}, "name": "block6b_se_expand", "inbound_nodes": [[["block6b_se_reduce", 0, 0, {}]]]}, {"class_name": "Multiply", "config": {"name": "block6b_se_excite", "trainable": false, "dtype": "float32"}, "name": "block6b_se_excite", "inbound_nodes": [[["block6b_activation", 0, 0, {}], ["block6b_se_expand", 0, 0, {}]]]}, {"class_name": "Conv2D", "config": {"name": "block6b_project_conv", "trainable": false, "dtype": "float32", "filters": 232, "kernel_size": [1, 1], "strides": [1, 1], "padding": "same", "data_format": "channels_last", "dilation_rate": [1, 1], "activation": "linear", "use_bias": false, "kernel_initializer": {"class_name": "VarianceScaling", "config": {"scale": 2.0, "mode": "fan_out", "distribution": "truncated_normal", "seed": null}}, "bias_initializer": {"class_name": "Zeros", "config": {}}, "kernel_regularizer": null, "bias_regularizer": null, "activity_regularizer": null, "kernel_constraint": null, "bias_constraint": null}, "name": "block6b_project_conv", "inbound_nodes": [[["block6b_se_excite", 0, 0, {}]]]}, {"class_name": "BatchNormalization", "config": {"name": "block6b_project_bn", "trainable": false, "dtype": "float32", "axis": [3], "momentum": 0.99, "epsilon": 0.001, "center": true, "scale": true, "beta_initializer": {"class_name": "Zeros", "config": {}}, "gamma_initializer": {"class_name": "Ones", "config": {}}, "moving_mean_initializer": {"class_name": "Zeros", "config": {}}, "moving_variance_initializer": {"class_name": "Ones", "config": {}}, "beta_regularizer": null, "gamma_regularizer": null, "beta_constraint": null, "gamma_constraint": null}, "name": "block6b_project_bn", "inbound_nodes": [[["block6b_project_conv", 0, 0, {}]]]}, {"class_name": "FixedDropout", "config": {"name": "block6b_drop", "trainable": false, "dtype": "float32", "rate": 0.23750000000000002, "noise_shape": [null, 1, 1, 1], "seed": null}, "name": "block6b_drop", "inbound_nodes": [[["block6b_project_bn", 0, 0, {}]]]}, {"class_name": "Add", "config": {"name": "block6b_add", "trainable": false, "dtype": "float32"}, "name": "block6b_add", "inbound_nodes": [[["block6b_drop", 0, 0, {}], ["block6a_project_bn", 0, 0, {}]]]}, {"class_name": "Conv2D", "config": {"name": "block6c_expand_conv", "trainable": false, "dtype": "float32", "filters": 1392, "kernel_size": [1, 1], "strides": [1, 1], "padding": "same", "data_format": "channels_last", "dilation_rate": [1, 1], "activation": "linear", "use_bias": false, "kernel_initializer": {"class_name": "VarianceScaling", "config": {"scale": 2.0, "mode": "fan_out", "distribution": "truncated_normal", "seed": null}}, "bias_initializer": {"class_name": "Zeros", "config": {}}, "kernel_regularizer": null, "bias_regularizer": null, "activity_regularizer": null, "kernel_constraint": null, "bias_constraint": null}, "name": "block6c_expand_conv", "inbound_nodes": [[["block6b_add", 0, 0, {}]]]}, {"class_name": "BatchNormalization", "config": {"name": "block6c_expand_bn", "trainable": false, "dtype": "float32", "axis": [3], "momentum": 0.99, "epsilon": 0.001, "center": true, "scale": true, "beta_initializer": {"class_name": "Zeros", "config": {}}, "gamma_initializer": {"class_name": "Ones", "config": {}}, "moving_mean_initializer": {"class_name": "Zeros", "config": {}}, "moving_variance_initializer": {"class_name": "Ones", "config": {}}, "beta_regularizer": null, "gamma_regularizer": null, "beta_constraint": null, "gamma_constraint": null}, "name": "block6c_expand_bn", "inbound_nodes": [[["block6c_expand_conv", 0, 0, {}]]]}, {"class_name": "Activation", "config": {"name": "block6c_expand_activation", "trainable": false, "dtype": "float32", "activation": "swish"}, "name": "block6c_expand_activation", "inbound_nodes": [[["block6c_expand_bn", 0, 0, {}]]]}, {"class_name": "DepthwiseConv2D", "config": {"name": "block6c_dwconv", "trainable": false, "dtype": "float32", "kernel_size": [5, 5], "strides": [1, 1], "padding": "same", "data_format": "channels_last", "dilation_rate": [1, 1], "activation": "linear", "use_bias": false, "bias_initializer": {"class_name": "Zeros", "config": {}}, "bias_regularizer": null, "activity_regularizer": null, "bias_constraint": null, "depth_multiplier": 1, "depthwise_initializer": {"class_name": "VarianceScaling", "config": {"scale": 2.0, "mode": "fan_out", "distribution": "truncated_normal", "seed": null}}, "depthwise_regularizer": null, "depthwise_constraint": null}, "name": "block6c_dwconv", "inbound_nodes": [[["block6c_expand_activation", 0, 0, {}]]]}, {"class_name": "BatchNormalization", "config": {"name": "block6c_bn", "trainable": false, "dtype": "float32", "axis": [3], "momentum": 0.99, "epsilon": 0.001, "center": true, "scale": true, "beta_initializer": {"class_name": "Zeros", "config": {}}, "gamma_initializer": {"class_name": "Ones", "config": {}}, "moving_mean_initializer": {"class_name": "Zeros", "config": {}}, "moving_variance_initializer": {"class_name": "Ones", "config": {}}, "beta_regularizer": null, "gamma_regularizer": null, "beta_constraint": null, "gamma_constraint": null}, "name": "block6c_bn", "inbound_nodes": [[["block6c_dwconv", 0, 0, {}]]]}, {"class_name": "Activation", "config": {"name": "block6c_activation", "trainable": false, "dtype": "float32", "activation": "swish"}, "name": "block6c_activation", "inbound_nodes": [[["block6c_bn", 0, 0, {}]]]}, {"class_name": "GlobalAveragePooling2D", "config": {"name": "block6c_se_squeeze", "trainable": false, "dtype": "float32", "data_format": "channels_last"}, "name": "block6c_se_squeeze", "inbound_nodes": [[["block6c_activation", 0, 0, {}]]]}, {"class_name": "Reshape", "config": {"name": "block6c_se_reshape", "trainable": false, "dtype": "float32", "target_shape": [1, 1, 1392]}, "name": "block6c_se_reshape", "inbound_nodes": [[["block6c_se_squeeze", 0, 0, {}]]]}, {"class_name": "Conv2D", "config": {"name": "block6c_se_reduce", "trainable": false, "dtype": "float32", "filters": 58, "kernel_size": [1, 1], "strides": [1, 1], "padding": "same", "data_format": "channels_last", "dilation_rate": [1, 1], "activation": "swish", "use_bias": true, "kernel_initializer": {"class_name": "VarianceScaling", "config": {"scale": 2.0, "mode": "fan_out", "distribution": "truncated_normal", "seed": null}}, "bias_initializer": {"class_name": "Zeros", "config": {}}, "kernel_regularizer": null, "bias_regularizer": null, "activity_regularizer": null, "kernel_constraint": null, "bias_constraint": null}, "name": "block6c_se_reduce", "inbound_nodes": [[["block6c_se_reshape", 0, 0, {}]]]}, {"class_name": "Conv2D", "config": {"name": "block6c_se_expand", "trainable": false, "dtype": "float32", "filters": 1392, "kernel_size": [1, 1], "strides": [1, 1], "padding": "same", "data_format": "channels_last", "dilation_rate": [1, 1], "activation": "sigmoid", "use_bias": true, "kernel_initializer": {"class_name": "VarianceScaling", "config": {"scale": 2.0, "mode": "fan_out", "distribution": "truncated_normal", "seed": null}}, "bias_initializer": {"class_name": "Zeros", "config": {}}, "kernel_regularizer": null, "bias_regularizer": null, "activity_regularizer": null, "kernel_constraint": null, "bias_constraint": null}, "name": "block6c_se_expand", "inbound_nodes": [[["block6c_se_reduce", 0, 0, {}]]]}, {"class_name": "Multiply", "config": {"name": "block6c_se_excite", "trainable": false, "dtype": "float32"}, "name": "block6c_se_excite", "inbound_nodes": [[["block6c_activation", 0, 0, {}], ["block6c_se_expand", 0, 0, {}]]]}, {"class_name": "Conv2D", "config": {"name": "block6c_project_conv", "trainable": false, "dtype": "float32", "filters": 232, "kernel_size": [1, 1], "strides": [1, 1], "padding": "same", "data_format": "channels_last", "dilation_rate": [1, 1], "activation": "linear", "use_bias": false, "kernel_initializer": {"class_name": "VarianceScaling", "config": {"scale": 2.0, "mode": "fan_out", "distribution": "truncated_normal", "seed": null}}, "bias_initializer": {"class_name": "Zeros", "config": {}}, "kernel_regularizer": null, "bias_regularizer": null, "activity_regularizer": null, "kernel_constraint": null, "bias_constraint": null}, "name": "block6c_project_conv", "inbound_nodes": [[["block6c_se_excite", 0, 0, {}]]]}, {"class_name": "BatchNormalization", "config": {"name": "block6c_project_bn", "trainable": false, "dtype": "float32", "axis": [3], "momentum": 0.99, "epsilon": 0.001, "center": true, "scale": true, "beta_initializer": {"class_name": "Zeros", "config": {}}, "gamma_initializer": {"class_name": "Ones", "config": {}}, "moving_mean_initializer": {"class_name": "Zeros", "config": {}}, "moving_variance_initializer": {"class_name": "Ones", "config": {}}, "beta_regularizer": null, "gamma_regularizer": null, "beta_constraint": null, "gamma_constraint": null}, "name": "block6c_project_bn", "inbound_nodes": [[["block6c_project_conv", 0, 0, {}]]]}, {"class_name": "FixedDropout", "config": {"name": "block6c_drop", "trainable": false, "dtype": "float32", "rate": 0.25, "noise_shape": [null, 1, 1, 1], "seed": null}, "name": "block6c_drop", "inbound_nodes": [[["block6c_project_bn", 0, 0, {}]]]}, {"class_name": "Add", "config": {"name": "block6c_add", "trainable": false, "dtype": "float32"}, "name": "block6c_add", "inbound_nodes": [[["block6c_drop", 0, 0, {}], ["block6b_add", 0, 0, {}]]]}, {"class_name": "Conv2D", "config": {"name": "block6d_expand_conv", "trainable": false, "dtype": "float32", "filters": 1392, "kernel_size": [1, 1], "strides": [1, 1], "padding": "same", "data_format": "channels_last", "dilation_rate": [1, 1], "activation": "linear", "use_bias": false, "kernel_initializer": {"class_name": "VarianceScaling", "config": {"scale": 2.0, "mode": "fan_out", "distribution": "truncated_normal", "seed": null}}, "bias_initializer": {"class_name": "Zeros", "config": {}}, "kernel_regularizer": null, "bias_regularizer": null, "activity_regularizer": null, "kernel_constraint": null, "bias_constraint": null}, "name": "block6d_expand_conv", "inbound_nodes": [[["block6c_add", 0, 0, {}]]]}, {"class_name": "BatchNormalization", "config": {"name": "block6d_expand_bn", "trainable": false, "dtype": "float32", "axis": [3], "momentum": 0.99, "epsilon": 0.001, "center": true, "scale": true, "beta_initializer": {"class_name": "Zeros", "config": {}}, "gamma_initializer": {"class_name": "Ones", "config": {}}, "moving_mean_initializer": {"class_name": "Zeros", "config": {}}, "moving_variance_initializer": {"class_name": "Ones", "config": {}}, "beta_regularizer": null, "gamma_regularizer": null, "beta_constraint": null, "gamma_constraint": null}, "name": "block6d_expand_bn", "inbound_nodes": [[["block6d_expand_conv", 0, 0, {}]]]}, {"class_name": "Activation", "config": {"name": "block6d_expand_activation", "trainable": false, "dtype": "float32", "activation": "swish"}, "name": "block6d_expand_activation", "inbound_nodes": [[["block6d_expand_bn", 0, 0, {}]]]}, {"class_name": "DepthwiseConv2D", "config": {"name": "block6d_dwconv", "trainable": false, "dtype": "float32", "kernel_size": [5, 5], "strides": [1, 1], "padding": "same", "data_format": "channels_last", "dilation_rate": [1, 1], "activation": "linear", "use_bias": false, "bias_initializer": {"class_name": "Zeros", "config": {}}, "bias_regularizer": null, "activity_regularizer": null, "bias_constraint": null, "depth_multiplier": 1, "depthwise_initializer": {"class_name": "VarianceScaling", "config": {"scale": 2.0, "mode": "fan_out", "distribution": "truncated_normal", "seed": null}}, "depthwise_regularizer": null, "depthwise_constraint": null}, "name": "block6d_dwconv", "inbound_nodes": [[["block6d_expand_activation", 0, 0, {}]]]}, {"class_name": "BatchNormalization", "config": {"name": "block6d_bn", "trainable": false, "dtype": "float32", "axis": [3], "momentum": 0.99, "epsilon": 0.001, "center": true, "scale": true, "beta_initializer": {"class_name": "Zeros", "config": {}}, "gamma_initializer": {"class_name": "Ones", "config": {}}, "moving_mean_initializer": {"class_name": "Zeros", "config": {}}, "moving_variance_initializer": {"class_name": "Ones", "config": {}}, "beta_regularizer": null, "gamma_regularizer": null, "beta_constraint": null, "gamma_constraint": null}, "name": "block6d_bn", "inbound_nodes": [[["block6d_dwconv", 0, 0, {}]]]}, {"class_name": "Activation", "config": {"name": "block6d_activation", "trainable": false, "dtype": "float32", "activation": "swish"}, "name": "block6d_activation", "inbound_nodes": [[["block6d_bn", 0, 0, {}]]]}, {"class_name": "GlobalAveragePooling2D", "config": {"name": "block6d_se_squeeze", "trainable": false, "dtype": "float32", "data_format": "channels_last"}, "name": "block6d_se_squeeze", "inbound_nodes": [[["block6d_activation", 0, 0, {}]]]}, {"class_name": "Reshape", "config": {"name": "block6d_se_reshape", "trainable": false, "dtype": "float32", "target_shape": [1, 1, 1392]}, "name": "block6d_se_reshape", "inbound_nodes": [[["block6d_se_squeeze", 0, 0, {}]]]}, {"class_name": "Conv2D", "config": {"name": "block6d_se_reduce", "trainable": false, "dtype": "float32", "filters": 58, "kernel_size": [1, 1], "strides": [1, 1], "padding": "same", "data_format": "channels_last", "dilation_rate": [1, 1], "activation": "swish", "use_bias": true, "kernel_initializer": {"class_name": "VarianceScaling", "config": {"scale": 2.0, "mode": "fan_out", "distribution": "truncated_normal", "seed": null}}, "bias_initializer": {"class_name": "Zeros", "config": {}}, "kernel_regularizer": null, "bias_regularizer": null, "activity_regularizer": null, "kernel_constraint": null, "bias_constraint": null}, "name": "block6d_se_reduce", "inbound_nodes": [[["block6d_se_reshape", 0, 0, {}]]]}, {"class_name": "Conv2D", "config": {"name": "block6d_se_expand", "trainable": false, "dtype": "float32", "filters": 1392, "kernel_size": [1, 1], "strides": [1, 1], "padding": "same", "data_format": "channels_last", "dilation_rate": [1, 1], "activation": "sigmoid", "use_bias": true, "kernel_initializer": {"class_name": "VarianceScaling", "config": {"scale": 2.0, "mode": "fan_out", "distribution": "truncated_normal", "seed": null}}, "bias_initializer": {"class_name": "Zeros", "config": {}}, "kernel_regularizer": null, "bias_regularizer": null, "activity_regularizer": null, "kernel_constrain…
inable": false, "dtype": "float32", "axis": [3], "momentum": 0.99, "epsilon": 0.001, "center": true, "scale": true, "beta_initializer": {"class_name": "Zeros", "config": {}}, "gamma_initializer": {"class_name": "Ones", "config": {}}, "moving_mean_initializer": {"class_name": "Zeros", "config": {}}, "moving_variance_initializer": {"class_name": "Ones", "config": {}}, "beta_regularizer": null, "gamma_regularizer": null, "beta_constraint": null, "gamma_constraint": null}, "name": "block7a_project_bn", "inbound_nodes": [[["block7a_project_conv", 0, 0, {}]]]}, {"class_name": "Conv2D", "config": {"name": "block7b_expand_conv", "trainable": false, "dtype": "float32", "filters": 2304, "kernel_size": [1, 1], "strides": [1, 1], "padding": "same", "data_format": "channels_last", "dilation_rate": [1, 1], "activation": "linear", "use_bias": false, "kernel_initializer": {"class_name": "VarianceScaling", "config": {"scale": 2.0, "mode": "fan_out", "distribution": "truncated_normal", "seed": null}}, "bias_initializer": {"class_name": "Zeros", "config": {}}, "kernel_regularizer": null, "bias_regularizer": null, "activity_regularizer": null, "kernel_constraint": null, "bias_constraint": null}, "name": "block7b_expand_conv", "inbound_nodes": [[["block7a_project_bn", 0, 0, {}]]]}, {"class_name": "BatchNormalization", "config": {"name": "block7b_expand_bn", "trainable": false, "dtype": "float32", "axis": [3], "momentum": 0.99, "epsilon": 0.001, "center": true, "scale": true, "beta_initializer": {"class_name": "Zeros", "config": {}}, "gamma_initializer": {"class_name": "Ones", "config": {}}, "moving_mean_initializer": {"class_name": "Zeros", "config": {}}, "moving_variance_initializer": {"class_name": "Ones", "config": {}}, "beta_regularizer": null, "gamma_regularizer": null, "beta_constraint": null, "gamma_constraint": null}, "name": "block7b_expand_bn", "inbound_nodes": [[["block7b_expand_conv", 0, 0, {}]]]}, {"class_name": "Activation", "config": {"name": "block7b_expand_activation", "trainable": false, "dtype": "float32", "activation": "swish"}, "name": "block7b_expand_activation", "inbound_nodes": [[["block7b_expand_bn", 0, 0, {}]]]}, {"class_name": "DepthwiseConv2D", "config": {"name": "block7b_dwconv", "trainable": false, "dtype": "float32", "kernel_size": [3, 3], "strides": [1, 1], "padding": "same", "data_format": "channels_last", "dilation_rate": [1, 1], "activation": "linear", "use_bias": false, "bias_initializer": {"class_name": "Zeros", "config": {}}, "bias_regularizer": null, "activity_regularizer": null, "bias_constraint": null, "depth_multiplier": 1, "depthwise_initializer": {"class_name": "VarianceScaling", "config": {"scale": 2.0, "mode": "fan_out", "distribution": "truncated_normal", "seed": null}}, "depthwise_regularizer": null, "depthwise_constraint": null}, "name": "block7b_dwconv", "inbound_nodes": [[["block7b_expand_activation", 0, 0, {}]]]}, {"class_name": "BatchNormalization", "config": {"name": "block7b_bn", "trainable": false, "dtype": "float32", "axis": [3], "momentum": 0.99, "epsilon": 0.001, "center": true, "scale": true, "beta_initializer": {"class_name": "Zeros", "config": {}}, "gamma_initializer": {"class_name": "Ones", "config": {}}, "moving_mean_initializer": {"class_name": "Zeros", "config": {}}, "moving_variance_initializer": {"class_name": "Ones", "config": {}}, "beta_regularizer": null, "gamma_regularizer": null, "beta_constraint": null, "gamma_constraint": null}, "name": "block7b_bn", "inbound_nodes": [[["block7b_dwconv", 0, 0, {}]]]}, {"class_name": "Activation", "config": {"name": "block7b_activation", "trainable": false, "dtype": "float32", "activation": "swish"}, "name": "block7b_activation", "inbound_nodes": [[["block7b_bn", 0, 0, {}]]]}, {"class_name": "GlobalAveragePooling2D", "config": {"name": "block7b_se_squeeze", "trainable": false, "dtype": "float32", "data_format": "channels_last"}, "name": "block7b_se_squeeze", "inbound_nodes": [[["block7b_activation", 0, 0, {}]]]}, {"class_name": "Reshape", "config": {"name": "block7b_se_reshape", "trainable": false, "dtype": "float32", "target_shape": [1, 1, 2304]}, "name": "block7b_se_reshape", "inbound_nodes": [[["block7b_se_squeeze", 0, 0, {}]]]}, {"class_name": "Conv2D", "config": {"name": "block7b_se_reduce", "trainable": false, "dtype": "float32", "filters": 96, "kernel_size": [1, 1], "strides": [1, 1], "padding": "same", "data_format": "channels_last", "dilation_rate": [1, 1], "activation": "swish", "use_bias": true, "kernel_initializer": {"class_name": "VarianceScaling", "config": {"scale": 2.0, "mode": "fan_out", "distribution": "truncated_normal", "seed": null}}, "bias_initializer": {"class_name": "Zeros", "config": {}}, "kernel_regularizer": null, "bias_regularizer": null, "activity_regularizer": null, "kernel_constraint": null, "bias_constraint": null}, "name": "block7b_se_reduce", "inbound_nodes": [[["block7b_se_reshape", 0, 0, {}]]]}, {"class_name": "Conv2D", "config": {"name": "block7b_se_expand", "trainable": false, "dtype": "float32", "filters": 2304, "kernel_size": [1, 1], "strides": [1, 1], "padding": "same", "data_format": "channels_last", "dilation_rate": [1, 1], "activation": "sigmoid", "use_bias": true, "kernel_initializer": {"class_name": "VarianceScaling", "config": {"scale": 2.0, "mode": "fan_out", "distribution": "truncated_normal", "seed": null}}, "bias_initializer": {"class_name": "Zeros", "config": {}}, "kernel_regularizer": null, "bias_regularizer": null, "activity_regularizer": null, "kernel_constraint": null, "bias_constraint": null}, "name": "block7b_se_expand", "inbound_nodes": [[["block7b_se_reduce", 0, 0, {}]]]}, {"class_name": "Multiply", "config": {"name": "block7b_se_excite", "trainable": false, "dtype": "float32"}, "name": "block7b_se_excite", "inbound_nodes": [[["block7b_activation", 0, 0, {}], ["block7b_se_expand", 0, 0, {}]]]}, {"class_name": "Conv2D", "config": {"name": "block7b_project_conv", "trainable": false, "dtype": "float32", "filters": 384, "kernel_size": [1, 1], "strides": [1, 1], "padding": "same", "data_format": "channels_last", "dilation_rate": [1, 1], "activation": "linear", "use_bias": false, "kernel_initializer": {"class_name": "VarianceScaling", "config": {"scale": 2.0, "mode": "fan_out", "distribution": "truncated_normal", "seed": null}}, "bias_initializer": {"class_name": "Zeros", "config": {}}, "kernel_regularizer": null, "bias_regularizer": null, "activity_regularizer": null, "kernel_constraint": null, "bias_constraint": null}, "name": "block7b_project_conv", "inbound_nodes": [[["block7b_se_excite", 0, 0, {}]]]}, {"class_name": "BatchNormalization", "config": {"name": "block7b_project_bn", "trainable": false, "dtype": "float32", "axis": [3], "momentum": 0.99, "epsilon": 0.001, "center": true, "scale": true, "beta_initializer": {"class_name": "Zeros", "config": {}}, "gamma_initializer": {"class_name": "Ones", "config": {}}, "moving_mean_initializer": {"class_name": "Zeros", "config": {}}, "moving_variance_initializer": {"class_name": "Ones", "config": {}}, "beta_regularizer": null, "gamma_regularizer": null, "beta_constraint": null, "gamma_constraint": null}, "name": "block7b_project_bn", "inbound_nodes": [[["block7b_project_conv", 0, 0, {}]]]}, {"class_name": "FixedDropout", "config": {"name": "block7b_drop", "trainable": false, "dtype": "float32", "rate": 0.3125, "noise_shape": [null, 1, 1, 1], "seed": null}, "name": "block7b_drop", "inbound_nodes": [[["block7b_project_bn", 0, 0, {}]]]}, {"class_name": "Add", "config": {"name": "block7b_add", "trainable": false, "dtype": "float32"}, "name": "block7b_add", "inbound_nodes": [[["block7b_drop", 0, 0, {}], ["block7a_project_bn", 0, 0, {}]]]}, {"class_name": "Conv2D", "config": {"name": "top_conv", "trainable": false, "dtype": "float32", "filters": 1536, "kernel_size": [1, 1], "strides": [1, 1], "padding": "same", "data_format": "channels_last", "dilation_rate": [1, 1], "activation": "linear", "use_bias": false, "kernel_initializer": {"class_name": "VarianceScaling", "config": {"scale": 2.0, "mode": "fan_out", "distribution": "truncated_normal", "seed": null}}, "bias_initializer": {"class_name": "Zeros", "config": {}}, "kernel_regularizer": null, "bias_regularizer": null, "activity_regularizer": null, "kernel_constraint": null, "bias_constraint": null}, "name": "top_conv", "inbound_nodes": [[["block7b_add", 0, 0, {}]]]}, {"class_name": "BatchNormalization", "config": {"name": "top_bn", "trainable": false, "dtype": "float32", "axis": [3], "momentum": 0.99, "epsilon": 0.001, "center": true, "scale": true, "beta_initializer": {"class_name": "Zeros", "config": {}}, "gamma_initializer": {"class_name": "Ones", "config": {}}, "moving_mean_initializer": {"class_name": "Zeros", "config": {}}, "moving_variance_initializer": {"class_name": "Ones", "config": {}}, "beta_regularizer": null, "gamma_regularizer": null, "beta_constraint": null, "gamma_constraint": null}, "name": "top_bn", "inbound_nodes": [[["top_conv", 0, 0, {}]]]}, {"class_name": "Activation", "config": {"name": "top_activation", "trainable": false, "dtype": "float32", "activation": "swish"}, "name": "top_activation", "inbound_nodes": [[["top_bn", 0, 0, {}]]]}, {"class_name": "GlobalAveragePooling2D", "config": {"name": "avg_pool", "trainable": false, "dtype": "float32", "data_format": "channels_last"}, "name": "avg_pool", "inbound_nodes": [[["top_activation", 0, 0, {}]]]}, {"class_name": "Flatten", "config": {"name": "flatten", "trainable": true, "dtype": "float32", "data_format": "channels_last"}, "name": "flatten", "inbound_nodes": [[["avg_pool", 0, 0, {}]]]}, {"class_name": "Dense", "config": {"name": "dense", "trainable": true, "dtype": "float32", "units": 1024, "activation": "relu", "use_bias": true, "kernel_initializer": {"class_name": "GlorotUniform", "config": {"seed": null}}, "bias_initializer": {"class_name": "Zeros", "config": {}}, "kernel_regularizer": null, "bias_regularizer": null, "activity_regularizer": null, "kernel_constraint": null, "bias_constraint": null}, "name": "dense", "inbound_nodes": [[["flatten", 0, 0, {}]]]}, {"class_name": "Dropout", "config": {"name": "dropout", "trainable": true, "dtype": "float32", "rate": 0.2, "noise_shape": null, "seed": null}, "name": "dropout", "inbound_nodes": [[["dense", 0, 0, {}]]]}, {"class_name": "Dense", "config": {"name": "dense_1", "trainable": true, "dtype": "float32", "units": 8, "activation": "softmax", "use_bias": true, "kernel_initializer": {"class_name": "GlorotUniform", "config": {"seed": null}}, "bias_initializer": {"class_name": "Zeros", "config": {}}, "kernel_regularizer": null, "bias_regularizer": null, "activity_regularizer": null, "kernel_constraint": null, "bias_constraint": null}, "name": "dense_1", "inbound_nodes": [[["dropout", 0, 0, {}]]]}], "input_layers": [["input_1", 0, 0]], "output_layers": [["dense_1", 0, 0]]}}, "training_config": {"loss": "categorical_crossentropy", "metrics": ["accuracy"], "weighted_metrics": null, "loss_weights": null, "sample_weight_mode": null, "optimizer_config": {"class_name": "Adam", "config": {"name": "Adam", "learning_rate": 7.812500371073838e-06, "decay": 0.0, "beta_1": 0.8999999761581421, "beta_2": 0.9990000128746033, "epsilon": 1e-07, "amsgrad": false}}}}, "weightsManifest": [{"paths": ["group1-shard1of12.bin", "group1-shard2of12.bin", "group1-shard3of12.bin", "group1-shard4of12.bin", "group1-shard5of12.bin", "group1-shard6of12.bin", "group1-shard7of12.bin", "group1-shard8of12.bin", "group1-shard9of12.bin", "group1-shard10of12.bin", "group1-shard11of12.bin", "group1-shard12of12.bin"], "weights": [{"name": "block1a_bn/gamma", "shape": [40], "dtype": "float32"}, {"name": "block1a_bn/beta", "shape": [40], "dtype": "float32"}, {"name": "block1a_bn/moving_mean", "shape": [40], "dtype": "float32"}, {"name": "block1a_bn/moving_variance", "shape": [40], "dtype": "float32"}, {"name": "block1a_dwconv/depthwise_kernel", "shape": [3, 3, 40, 1], "dtype": "float32"}, {"name": "block1a_project_bn/gamma", "shape": [24], "dtype": "float32"}, {"name": "block1a_project_bn/beta", "shape": [24], "dtype": "float32"}, {"name": "block1a_project_bn/moving_mean", "shape": [24], "dtype": "float32"}, {"name": "block1a_project_bn/moving_variance", "shape": [24], "dtype": "float32"}, {"name": "block1a_project_conv/kernel", "shape": [1, 1, 40, 24], "dtype": "float32"}, {"name": "block1a_se_expand/kernel", "shape": [1, 1, 10, 40], "dtype": "float32"}, {"name": "block1a_se_expand/bias", "shape": [40], "dtype": "float32"}, {"name": "block1a_se_reduce/kernel", "shape": [1, 1, 40, 10], "dtype": "float32"}, {"name": "block1a_se_reduce/bias", "shape": [10], "dtype": "float32"}, {"name": "block1b_bn/gamma", "shape": [24], "dtype": "float32"}, {"name": "block1b_bn/beta", "shape": [24], "dtype": "float32"}, {"name": "block1b_bn/moving_mean", "shape": [24], "dtype": "float32"}, {"name": "block1b_bn/moving_variance", "shape": [24], "dtype": "float32"}, {"name": "block1b_dwconv/depthwise_kernel", "shape": [3, 3, 24, 1], "dtype": "float32"}, {"name": "block1b_project_bn/gamma", "shape": [24], "dtype": "float32"}, {"name": "block1b_project_bn/beta", "shape": [24], "dtype": "float32"}, {"name": "block1b_project_bn/moving_mean", "shape": [24], "dtype": "float32"}, {"name": "block1b_project_bn/moving_variance", "shape": [24], "dtype": "float32"}, {"name": "block1b_project_conv/kernel", "shape": [1, 1, 24, 24], "dtype": "float32"}, {"name": "block1b_se_expand/kernel", "shape": [1, 1, 6, 24], "dtype": "float32"}, {"name": "block1b_se_expand/bias", "shape": [24], "dtype": "float32"}, {"name": "block1b_se_reduce/kernel", "shape": [1, 1, 24, 6], "dtype": "float32"}, {"name": "block1b_se_reduce/bias", "shape": [6], "dtype": "float32"}, {"name": "block2a_bn/gamma", "shape": [144], "dtype": "float32"}, {"name": "block2a_bn/beta", "shape": [144], "dtype": "float32"}, {"name": "block2a_bn/moving_mean", "shape": [144], "dtype": "float32"}, {"name": "block2a_bn/moving_variance", "shape": [144], "dtype": "float32"}, {"name": "block2a_dwconv/depthwise_kernel", "shape": [3, 3, 144, 1], "dtype": "float32"}, {"name": "block2a_expand_bn/gamma", "shape": [144], "dtype": "float32"}, {"name": "block2a_expand_bn/beta", "shape": [144], "dtype": "float32"}, {"name": "block2a_expand_bn/moving_mean", "shape": [144], "dtype": "float32"}, {"name": "block2a_expand_bn/moving_variance", "shape": [144], "dtype": "float32"}, {"name": "block2a_expand_conv/kernel", "shape": [1, 1, 24, 144], "dtype": "float32"}, {"name": "block2a_project_bn/gamma", "shape": [32], "dtype": "float32"}, {"name": "block2a_project_bn/beta", "shape": [32], "dtype": "float32"}, {"name": "block2a_project_bn/moving_mean", "shape": [32], "dtype": "float32"}, {"name": "block2a_project_bn/moving_variance", "shape": [32], "dtype": "float32"}, {"name": "block2a_project_conv/kernel", "shape": [1, 1, 144, 32], "dtype": "float32"}, {"name": "block2a_se_expand/kernel", "shape": [1, 1, 6, 144], "dtype": "float32"}, {"name": "block2a_se_expand/bias", "shape": [144], "dtype": "float32"}, {"name": "block2a_se_reduce/kernel", "shape": [1, 1, 144, 6], "dtype": "float32"}, {"name": "block2a_se_reduce/bias", "shape": [6], "dtype": "float32"}, {"name": "block2b_bn/gamma", "shape": [192], "dtype": "float32"}, {"name": "block2b_bn/beta", "shape": [192], "dtype": "float32"}, {"name": "block2b_bn/moving_mean", "shape": [192], "dtype": "float32"}, {"name": "block2b_bn/moving_variance", "shape": [192], "dtype": "float32"}, {"name": "block2b_dwconv/depthwise_kernel", "shape": [3, 3, 192, 1], "dtype": "float32"}, {"name": "block2b_expand_bn/gamma", "shape": [192], "dtype": "float32"}, {"name": "block2b_expand_bn/beta", "shape": [192], "dtype": "float32"}, {"name": "block2b_expand_bn/moving_mean", "shape": [192], "dtype": "float32"}, {"name": "block2b_expand_bn/moving_variance", "shape": [192], "dtype": "float32"}, {"name": "block2b_expand_conv/kernel", "shape": [1, 1, 32, 192], "dtype": "float32"}, {"name": "block2b_project_bn/gamma", "shape": [32], "dtype": "float32"}, {"name": "block2b_project_bn/beta", "shape": [32], "dtype": "float32"}, {"name": "block2b_project_bn/moving_mean", "shape": [32], "dtype": "float32"}, {"name": "block2b_project_bn/moving_variance", "shape": [32], "dtype": "float32"}, {"name": "block2b_project_conv/kernel", "shape": [1, 1, 192, 32], "dtype": "float32"}, {"name": "block2b_se_expand/kernel", "shape": [1, 1, 8, 192], "dtype": "float32"}, {"name": "block2b_se_expand/bias", "shape": [192], "dtype": "float32"}, {"name": "block2b_se_reduce/kernel", "shape": [1, 1, 192, 8], "dtype": "float32"}, {"name": "block2b_se_reduce/bias", "shape": [8], "dtype": "float32"}, {"name": "block2c_bn/gamma", "shape": [192], "dtype": "float32"}, {"name": "block2c_bn/beta", "shape": [192], "dtype": "float32"}, {"name": "block2c_bn/moving_mean", "shape": [192], "dtype": "float32"}, {"name": "block2c_bn/moving_variance", "shape": [192], "dtype": "float32"}, {"name": "block2c_dwconv/depthwise_kernel", "shape": [3, 3, 192, 1], "dtype": "float32"}, {"name": "block2c_expand_bn/gamma", "shape": [192], "dtype": "float32"}, {"name": "block2c_expand_bn/beta", "shape": [192], "dtype": "float32"}, {"name": "block2c_expand_bn/moving_mean", "shape": [192], "dtype": "float32"}, {"name": "block2c_expand_bn/moving_variance", "shape": [192], "dtype": "float32"}, {"name": "block2c_expand_conv/kernel", "shape": [1, 1, 32, 192], "dtype": "float32"}, {"name": "block2c_project_bn/gamma", "shape": [32], "dtype": "float32"}, {"name": "block2c_project_bn/beta", "shape": [32], "dtype": "float32"}, {"name": "block2c_project_bn/moving_mean", "shape": [32], "dtype": "float32"}, {"name": "block2c_project_bn/moving_variance", "shape": [32], "dtype": "float32"}, {"name": "block2c_project_conv/kernel", "shape": [1, 1, 192, 32], "dtype": "float32"}, {"name": "block2c_se_expand/kernel", "shape": [1, 1, 8, 192], "dtype": "float32"}, {"name": "block2c_se_expand/bias", "shape": [192], "dtype": "float32"}, {"name": "block2c_se_reduce/kernel", "shape": [1, 1, 192, 8], "dtype": "float32"}, {"name": "block2c_se_reduce/bias", "shape": [8], "dtype": "float32"}, {"name": "block3a_bn/gamma", "shape": [192], "dtype": "float32"}, {"name": "block3a_bn/beta", "shape": [192], "dtype": "float32"}, {"name": "block3a_bn/moving_mean", "shape": [192], "dtype": "float32"}, {"name": "block3a_bn/moving_variance", "shape": [192], "dtype": "float32"}, {"name": "block3a_dwconv/depthwise_kernel", "shape": [5, 5, 192, 1], "dtype": "float32"}, {"name": "block3a_expand_bn/gamma", "shape": [192], "dtype": "float32"}, {"name": "block3a_expand_bn/beta", "shape": [192], "dtype": "float32"}, {"name": "block3a_expand_bn/moving_mean", "shape": [192], "dtype": "float32"}, {"name": "block3a_expand_bn/moving_variance", "shape": [192], "dtype": "float32"}, {"name": "block3a_expand_conv/kernel", "shape": [1, 1, 32, 192], "dtype": "float32"}, {"name": "block3a_project_bn/gamma", "shape": [48], "dtype": "float32"}, {"name": "block3a_project_bn/beta", "shape": [48], "dtype": "float32"}, {"name": "block3a_project_bn/moving_mean", "shape": [48], "dtype": "float32"}, {"name": "block3a_project_bn/moving_variance", "shape": [48], "dtype": "float32"}, {"name": "block3a_project_conv/kernel", "shape": [1, 1, 192, 48], "dtype": "float32"}, {"name": "block3a_se_expand/kernel", "shape": [1, 1, 8, 192], "dtype": "float32"}, {"name": "block3a_se_expand/bias", "shape": [192], "dtype": "float32"}, {"name": "block3a_se_reduce/kernel", "shape": [1, 1, 192, 8], "dtype": "float32"}, {"name": "block3a_se_reduce/bias", "shape": [8], "dtype": "float32"}, {"name": "block3b_bn/gamma", "shape": [288], "dtype": "float32"}, {"name": "block3b_bn/beta", "shape": [288], "dtype": "float32"}, {"name": "block3b_bn/moving_mean", "shape": [288], "dtype": "float32"}, {"name": "block3b_bn/moving_variance", "shape": [288], "dtype": "float32"}, {"name": "block3b_dwconv/depthwise_kernel", "shape": [5, 5, 288, 1], "dtype": "float32"}, {"name": "block3b_expand_bn/gamma", "shape": [288], "dtype": "float32"}, {"name": "block3b_expand_bn/beta", "shape": [288], "dtype": "float32"}, {"name": "block3b_expand_bn/moving_mean", "shape": [288], "dtype": "float32"}, {"name": "block3b_expand_bn/moving_variance", "shape": [288], "dtype": "float32"}, {"name": "block3b_expand_conv/kernel", "shape": [1, 1, 48, 288], "dtype": "float32"}, {"name": "block3b_project_bn/gamma", "shape": [48], "dtype": "float32"}, {"name": "block3b_project_bn/beta", "shape": [48], "dtype": "float32"}, {"name": "block3b_project_bn/moving_mean", "shape": [48], "dtype": "float32"}, {"name": "block3b_project_bn/moving_variance", "shape": [48], "dtype": "float32"}, {"name": "block3b_project_conv/kernel", "shape": [1, 1, 288, 48], "dtype": "float32"}, {"name": "block3b_se_expand/kernel", "shape": [1, 1, 12, 288], "dtype": "float32"}, {"name": "block3b_se_expand/bias", "shape": [288], "dtype": "float32"}, {"name": "block3b_se_reduce/kernel", "shape": [1, 1, 288, 12], "dtype": "float32"}, {"name": "block3b_se_reduce/bias", "shape": [12], "dtype": "float32"}, {"name": "block3c_bn/gamma", "shape": [288], "dtype": "float32"}, {"name": "block3c_bn/beta", "shape": [288], "dtype": "float32"}, {"name": "block3c_bn/moving_mean", "shape": [288], "dtype": "float32"}, {"name": "block3c_bn/moving_variance", "shape": [288], "dtype": "float32"}, {"name": "block3c_dwconv/depthwise_kernel", "shape": [5, 5, 288, 1], "dtype": "float32"}, {"name": "block3c_expand_bn/gamma", "shape": [288], "dtype": "float32"}, {"name": "block3c_expand_bn/beta", "shape": [288], "dtype": "float32"}, {"name": "block3c_expand_bn/moving_mean", "shape": [288], "dtype": "float32"}, {"name": "block3c_expand_bn/moving_variance", "shape": [288], "dtype": "float32"}, {"name": "block3c_expand_conv/kernel", "shape": [1, 1, 48, 288], "dtype": "float32"}, {"name": "block3c_project_bn/gamma", "shape": [48], "dtype": "float32"}, {"name": "block3c_project_bn/beta", "shape": [48], "dtype": "float32"}, {"name": "block3c_project_bn/moving_mean", "shape": [48], "dtype": "float32"}, {"name": "block3c_project_bn/moving_variance", "shape": [48], "dtype": "float32"}, {"name": "block3c_project_conv/kernel", "shape": [1, 1, 288, 48], "dtype": "float32"}, {"name": "block3c_se_expand/kernel", "shape": [1, 1, 12, 288], "dtype": "float32"}, {"name": "block3c_se_expand/bias", "shape": [288], "dtype": "float32"}, {"name": "block3c_se_reduce/kernel", "shape": [1, 1, 288, 12], "dtype": "float32"}, {"name": "block3c_se_reduce/bias", "shape": [12], "dtype": "float32"}, {"name": "block4a_bn/gamma", "shape": [288], "dtype": "float32"}, {"name": "block4a_bn/beta", "shape": [288], "dtype": "float32"}, {"name": "block4a_bn/moving_mean", "shape": [288], "dtype": "float32"}, {"name": "block4a_bn/moving_variance", "shape": [288], "dtype": "float32"}, {"name": "block4a_dwconv/depthwise_kernel", "shape": [3, 3, 288, 1], "dtype": "float32"}, {"name": "block4a_expand_bn/gamma", "shape": [288], "dtype": "float32"}, {"name": "block4a_expand_bn/beta", "shape": [288], "dtype": "float32"}, {"name": "block4a_expand_bn/moving_mean", "shape": [288], "dtype": "float32"}, {"name": "block4a_expand_bn/moving_variance", "shape": [288], "dtype": "float32"}, {"name": "block4a_expand_conv/kernel", "shape": [1, 1, 48, 288], "dtype": "float32"}, {"name": "block4a_project_bn/gamma", "shape": [96], "dtype": "float32"}, {"name": "block4a_project_bn/beta", "shape": [96], "dtype": "float32"}, {"name": "block4a_project_bn/moving_mean", "shape": [96], "dtype": "float32"}, {"name": "block4a_project_bn/moving_variance", "shape": [96], "dtype": "float32"}, {"name": "block4a_project_conv/kernel", "shape": [1, 1, 288, 96], "dtype": "float32"}, {"name": "block4a_se_expand/kernel", "shape": [1, 1, 12, 288], "dtype": "float32"}, {"name": "block4a_se_expand/bias", "shape": [288], "dtype": "float32"}, {"name": "block4a_se_reduce/kernel", "shape": [1, 1, 288, 12], "dtype": "float32"}, {"name": "block4a_se_reduce/bias", "shape": [12], "dtype": "float32"}, {"name": "block4b_bn/gamma", "shape": [576], "dtype": "float32"}, {"name": "block4b_bn/beta", "shape": [576], "dtype": "float32"}, {"name": "block4b_bn/moving_mean", "shape": [576], "dtype": "float32"}, {"name": "block4b_bn/moving_variance", "shape": [576], "dtype": "float32"}, {"name": "block4b_dwconv/depthwise_kernel", "shape": [3, 3, 576, 1], "dtype": "float32"}, {"name": "block4b_expand_bn/gamma", "shape": [576], "dtype": "float32"}, {"name": "block4b_expand_bn/beta", "shape": [576], "dtype": "float32"}, {"name": "block4b_expand_bn/moving_mean", "shape": [576], "dtype": "float32"}, {"name": "block4b_expand_bn/moving_variance", "shape": [576], "dtype": "float32"}, {"name": "block4b_expand_conv/kernel", "shape": [1, 1, 96, 576], "dtype": "float32"}, {"name": "block4b_project_bn/gamma", "shape": [96], "dtype": "float32"}, {"name": "block4b_project_bn/beta", "shape": [96], "dtype": "float32"}, {"name": "block4b_project_bn/moving_mean", "shape": [96], "dtype": "float32"}, {"name": "block4b_project_bn/moving_variance", "shape": [96], "dtype": "float32"}, {"name": "block4b_project_conv/kernel", "shape": [1, 1, 576, 96], "dtype": "float32"}, {"name": "block4b_se_expand/kernel", "shape": [1, 1, 24, 576], "dtype": "float32"}, {"name": "block4b_se_expand/bias", "shape": [576], "dtype": "float32"}, {"name": "block4b_se_reduce/kernel", "shape": [1, 1, 576, 24], "dtype": "float32"}, {"name": "block4b_se_reduce/bias", "shape": [24], "dtype": "float32"}, {"name": "block4c_bn/gamma", "shape": [576], "dtype": "float32"}, {"name": "block4c_bn/beta", "shape": [576], "dtype": "float32"}, {"name": "block4c_bn/moving_mean", "shape": [576], "dtype": "float32"}, {"name": "block4c_bn/moving_variance", "shape": [576], "dtype": "float32"}, {"name": "block4c_dwconv/depthwise_kernel", "shape": [3, 3, 576, 1], "dtype": "float32"}, {"name": "block4c_expand_bn/gamma", "shape": [576], "dtype": "float32"}, {"name": "block4c_expand_bn/beta", "shape": [576], "dtype": "float32"}, {"name": "block4c_expand_bn/moving_mean", "shape": [576], "dtype": "float32"}, {"name": "block4c_expand_bn/moving_variance", "shape": [576], "dtype": "float32"}, {"name": "block4c_expand_conv/kernel", "shape": [1, 1, 96, 576], "dtype": "float32"}, {"name": "block4c_project_bn/gamma", "shape": [96], "dtype": "float32"}, {"name": "block4c_project_bn/beta", "shape": [96], "dtype": "float32"}, {"name": "block4c_project_bn/moving_mean", "shape": [96], "dtype": "float32"}, {"name": "block4c_project_bn/moving_variance", "shape": [96], "dtype": "float32"}, {"name": "block4c_project_conv/kernel", "shape": [1, 1, 576, 96], "dtype": "float32"}, {"name": "block4c_se_expand/kernel", "shape": [1, 1, 24, 576], "dtype": "float32"}, {"name": "block4c_se_expand/bias", "shape": [576], "dtype": "float32"}, {"name": "block4c_se_reduce/kernel", "shape": [1, 1, 576, 24], "dtype": "float32"}, {"name": "block4c_se_reduce/bias", "shape": [24], "dtype": "float32"}, {"name": "block4d_bn/gamma", "shape": [576], "dtype": "float32"}, {"name": "block4d_bn/beta", "shape": [576], "dtype": "float32"}, {"name": "block4d_bn/moving_mean", "shape": [576], "dtype": "float32"}, {"name": "block4d_bn/moving_variance", "shape": [576], "dtype": "float32"}, {"name": "block4d_dwconv/depthwise_kernel", "shape": [3, 3, 576, 1], "dtype": "float32"}, {"name": "block4d_expand_bn/gamma", "shape": [576], "dtype": "float32"}, {"name": "block4d_expand_bn/beta", "shape": [576], "dtype": "float32"}, {"name": "block4d_expand_bn/moving_mean", "shape": [576], "dtype": "float32"}, {"name": "block4d_expand_bn/moving_variance", "shape": [576], "dtype": "float32"}, {"name": "block4d_expand_conv/kernel", "shape": [1, 1, 96, 576], "dtype": "float32"}, {"name": "block4d_project_bn/gamma", "shape": [96], "dtype": "float32"}, {"name": "block4d_project_bn/beta", "shape": [96], "dtype": "float32"}, {"name": "block4d_project_bn/moving_mean", "shape": [96], "dtype": "float32"}, {"name": "block4d_project_bn/moving_variance", "shape": [96], "dtype": "float32"}, {"name": "block4d_project_conv/kernel", "shape": [1, 1, 576, 96], "dtype": "float32"}, {"name": "block4d_se_expand/kernel", "shape": [1, 1, 24, 576], "dtype": "float32"}, {"name": "block4d_se_expand/bias", "shape": [576], "dtype": "float32"}, {"name": "block4d_se_reduce/kernel", "shape": [1, 1, 576, 24], "dtype": "float32"}, {"name": "block4d_se_reduce/bias", "shape": [24], "dtype": "float32"}, {"name": "block4e_bn/gamma", "shape": [576], "dtype": "float32"}, {"name": "block4e_bn/beta", "shape": [576], "dtype": "float32"}, {"name": "block4e_bn/moving_mean", "shape": [576], "dtype": "float32"}, {"name": "block4e_bn/moving_variance", "shape": [576], "dtype": "float32"}, {"name": "block4e_dwconv/depthwise_kernel", "shape": [3, 3, 576, 1], "dtype": "float32"}, {"name": "block4e_expand_bn/gamma", "shape": [576], "dtype": "float32"}, {"name": "block4e_expand_bn/beta", "shape": [576], "dtype": "float32"}, {"name": "block4e_expand_bn/moving_mean", "shape": [576], "dtype": "float32"}, {"name": "block4e_expand_bn/moving_variance", "shape": [576], "dtype": "float32"}, {"name": "block4e_expand_conv/kernel", "shape": [1, 1, 96, 576], "dtype": "float32"}, {"name": "block4e_project_bn/gamma", "shape": [96], "dtype": "float32"}, {"name": "block4e_project_bn/beta", "shape": [96], "dtype": "float32"}, {"name": "block4e_project_bn/moving_mean", "shape": [96], "dtype": "float32"}, {"name": "block4e_project_bn/moving_variance", "shape": [96], "dtype": "float32"}, {"name": "block4e_project_conv/kernel", "shape": [1, 1, 576, 96], "dtype": "float32"}, {"name": "block4e_se_expand/kernel", "shape": [1, 1, 24, 576], "dtype": "float32"}, {"name": "block4e_se_expand/bias", "shape": [576], "dtype": "float32"}, {"name": "block4e_se_reduce/kernel", "shape": [1, 1, 576, 24], "dtype": "float32"}, {"name": "block4e_se_reduce/bias", "shape": [24], "dtype": "float32"}, {"name": "block5a_bn/gamma", "shape": [576], "dtype": "float32"}, {"name": "block5a_bn/beta", "shape": [576], "dtype": "float32"}, {"name": "block5a_bn/moving_mean", "shape": [576], "dtype": "float32"}, {"name": "block5a_bn/moving_variance", "shape": [576], "dtype": "float32"}, {"name": "block5a_dwconv/depthwise_kernel", "shape": [5, 5, 576, 1], "dtype": "float32"}, {"name": "block5a_expand_bn/gamma", "shape": [576], "dtype": "float32"}, {"name": "block5a_expand_bn/beta", "shape": [576], "dtype": "float32"}, {"name": "block5a_expand_bn/moving_mean", "shape": [576], "dtype": "float32"}, {"name": "block5a_expand_bn/moving_variance", "shape": [576], "dtype": "float32"}, {"name": "block5a_expand_conv/kernel", "shape": [1, 1, 96, 576], "dtype": "float32"}, {"name": "block5a_project_bn/gamma", "shape": [136], "dtype": "float32"}, {"name": "block5a_project_bn/beta", "shape": [136], "dtype": "float32"}, {"name": "block5a_project_bn/moving_mean", "shape": [136], "dtype": "float32"}, {"name": "block5a_project_bn/moving_variance", "shape": [136], "dtype": "float32"}, {"name": "block5a_project_conv/kernel", "shape": [1, 1, 576, 136], "dtype": "float32"}, {"name": "block5a_se_expand/kernel", "shape": [1, 1, 24, 576], "dtype": "float32"}, {"name": "block5a_se_expand/bias", "shape": [576], "dtype": "float32"}, {"name": "block5a_se_reduce/kernel", "shape": [1, 1, 576, 24], "dtype": "float32"}, {"name": "block5a_se_reduce/bias", "shape": [24], "dtype": "float32"}, {"name": "block5b_bn/gamma", "shape": [816], "dtype": "float32"}, {"name": "block5b_bn/beta", "shape": [816], "dtype": "float32"}, {"name": "block5b_bn/moving_mean", "shape": [816], "dtype": "float32"}, {"name": "block5b_bn/moving_variance", "shape": [816], "dtype": "float32"}, {"name": "block5b_dwconv/depthwise_kernel", "shape": [5, 5, 816, 1], "dtype": "float32"}, {"name": "block5b_expand_bn/gamma", "shape": [816], "dtype": "float32"}, {"name": "block5b_expand_bn/beta", "shape": [816], "dtype": "float32"}, {"name": "block5b_expand_bn/moving_mean", "shape": [816], "dtype": "float32"}, {"name": "block5b_expand_bn/moving_variance", "shape": [816], "dtype": "float32"}, {"name": "block5b_expand_conv/kernel", "shape": [1, 1, 136, 816], "dtype": "float32"}, {"name": "block5b_project_bn/gamma", "shape": [136], "dtype": "float32"}, {"name": "block5b_project_bn/beta", "shape": [136], "dtype": "float32"}, {"name": "block5b_project_bn/moving_mean", "shape": [136], "dtype": "float32"}, {"name": "block5b_project_bn/moving_variance", "shape": [136], "dtype": "float32"}, {"name": "block5b_project_conv/kernel", "shape": [1, 1, 816, 136], "dtype": "float32"}, {"name": "block5b_se_expand/kernel", "shape": [1, 1, 34, 816], "dtype": "float32"}, {"name": "block5b_se_expand/bias", "shape": [816], "dtype": "float32"}, {"name": "block5b_se_reduce/kernel", "shape": [1, 1, 816, 34], "dtype": "float32"}, {"name": "block5b_se_reduce/bias", "shape": [34], "dtype": "float32"}, {"name": "block5c_bn/gamma", "shape": [816], "dtype": "float32"}, {"name": "block5c_bn/beta", "shape": [816], "dtype": "float32"}, {"name": "block5c_bn/moving_mean", "shape": [816], "dtype": "float32"}, {"name": "block5c_bn/moving_variance", "shape": [816], "dtype": "float32"}, {"name": "block5c_dwconv/depthwise_kernel", "shape": [5, 5, 816, 1], "dtype": "float32"}, {"name": "block5c_expand_bn/gamma", "shape": [816], "dtype": "float32"}, {"name": "block5c_expand_bn/beta", "shape": [816], "dtype": "float32"}, {"name": "block5c_expand_bn/moving_mean", "shape": [816], "dtype": "float32"}, {"name": "block5c_expand_bn/moving_variance", "shape": [816], "dtype": "float32"}, {"name": "block5c_expand_conv/kernel", "shape": [1, 1, 136, 816], "dtype": "float32"}, {"name": "block5c_project_bn/gamma", "shape": [136], "dtype": "float32"}, {"name": "block5c_project_bn/beta", "shape": [136], "dtype": "float32"}, {"name": "block5c_project_bn/moving_mean", "shape": [136], "dtype": "float32"}, {"name": "block5c_project_bn/moving_variance", "shape": [136], "dtype": "float32"}, {"name": "block5c_project_conv/kernel", "shape": [1, 1, 816, 136], "dtype": "float32"}, {"name": "block5c_se_expand/kernel", "shape": [1, 1, 34, 816], "dtype": "float32"}, {"name": "block5c_se_expand/bias", "shape": [816], "dtype": "float32"}, {"name": "block5c_se_reduce/kernel", "shape": [1, 1, 816, 34], "dtype": "float32"}, {"name": "block5c_se_reduce/bias", "shape": [34], "dtype": "float32"}, {"name": "block5d_bn/gamma", "shape": [816], "dtype": "float32"}, {"name": "block5d_bn/beta", "shape": [816], "dtype": "float32"}, {"name": "block5d_bn/moving_mean", "shape": [816], "dtype": "float32"}, {"name": "block5d_bn/moving_variance", "shape": [816], "dtype": "float32"}, {"name": "block5d_dwconv/depthwise_kernel", "shape": [5, 5, 816, 1], "dtype": "float32"}, {"name": "block5d_expand_bn/gamma", "shape": [816], "dtype": "float32"}, {"name": "block5d_expand_bn/beta", "shape": [816], "dtype": "float32"}, {"name": "block5d_expand_bn/moving_mean", "shape": [816], "dtype": "float32"}, {"name": "block5d_expand_bn/moving_variance", "shape": [816], "dtype": "float32"}, {"name": "block5d_expand_conv/kernel", "shape": [1, 1, 136, 816], "dtype": "float32"}, {"name": "block5d_project_bn/gamma", "shape": [136], "dtype": "float32"}, {"name": "block5d_project_bn/beta", "shape": [136], "dtype": "float32"}, {"name": "block5d_project_bn/moving_mean", "shape": [136], "dtype": "float32"}, {"name": "block5d_project_bn/moving_variance", "shape": [136], "dtype": "float32"}, {"name": "block5d_project_conv/kernel", "shape": [1, 1, 816, 136], "dtype": "float32"}, {"name": "block5d_se_expand/kernel", "shape": [1, 1, 34, 816], "dtype": "float32"}, {"name": "block5d_se_expand/bias", "shape": [816], "dtype": "float32"}, {"name": "block5d_se_reduce/kernel", "shape": [1, 1, 816, 34], "dtype": "float32"}, {"name": "block5d_se_reduce/bias", "shape": [34], "dtype": "float32"}, {"name": "block5e_bn/gamma", "shape": [816], "dtype": "float32"}, {"name": "block5e_bn/beta", "shape": [816], "dtype": "float32"}, {"name": "block5e_bn/moving_mean", "shape": [816], "dtype": "float32"}, {"name": "block5e_bn/moving_variance", "shape": [816], "dtype": "float32"}, {"name": "block5e_dwconv/depthwise_kernel", "shape": [5, 5, 816, 1], "dtype": "float32"}, {"name": "block5e_expand_bn/gamma", "shape": [816], "dtype": "float32"}, {"name": "block5e_expand_bn/beta", "shape": [816], "dtype": "float32"}, {"name": "block5e_expand_bn/moving_mean", "shape": [816], "dtype": "float32"}, {"name": "block5e_expand_bn/moving_variance", "shape": [816], "dtype": "float32"}, {"name": "block5e_expand_conv/kernel", "shape": [1, 1, 136, 816], "dtype": "float32"}, {"name": "block5e_project_bn/gamma", "shape": [136], "dtype": "float32"}, {"name": "block5e_project_bn/beta", "shape": [136], "dtype": "float32"}, {"name": "block5e_project_bn/moving_mean", "shape": [136], "dtype": "float32"}, {"name": "block5e_project_bn/moving_variance", "shape": [136], "dtype": "float32"}, {"name": "block5e_project_conv/kernel", "shape": [1, 1, 816, 136], "dtype": "float32"}, {"name": "block5e_se_expand/kernel", "shape": [1, 1, 34, 816], "dtype": "float32"}, {"name": "block5e_se_expand/bias", "shape": [816], "dtype": "float32"}, {"name": "block5e_se_reduce/kernel", "shape": [1, 1, 816, 34], "dtype": "float32"}, {"name": "block5e_se_reduce/bias", "shape": [34], "dtype": "float32"}, {"name": "block6a_bn/gamma", "shape": [816], "dtype": "float32"}, {"name": "block6a_bn/beta", "shape": [816], "dtype": "float32"}, {"name": "block6a_bn/moving_mean", "shape": [816], "dtype": "float32"}, {"name": "block6a_bn/moving_variance", "shape": [816], "dtype": "float32"}, {"name": "block6a_dwconv/depthwise_kernel", "shape": [5, 5, 816, 1], "dtype": "float32"}, {"name": "block6a_expand_bn/gamma", "shape": [816], "dtype": "float32"}, {"name": "block6a_expand_bn/beta", "shape": [816], "dtype": "float32"}, {"name": "block6a_expand_bn/moving_mean", "shape": [816], "dtype": "float32"}, {"name": "block6a_expand_bn/moving_variance", "shape": [816], "dtype": "float32"}, {"name": "block6a_expand_conv/kernel", "shape": [1, 1, 136, 816], "dtype": "float32"}, {"name": "block6a_project_bn/gamma", "shape": [232], "dtype": "float32"}, {"name": "block6a_project_bn/beta", "shape": [232], "dtype": "float32"}, {"name": "block6a_project_bn/moving_mean", "shape": [232], "dtype": "float32"}, {"name": "block6a_project_bn/moving_variance", "shape": [232], "dtype": "float32"}, {"name": "block6a_project_conv/kernel", "shape": [1, 1, 816, 232], "dtype": "float32"}, {"name": "block6a_se_expand/kernel", "shape": [1, 1, 34, 816], "dtype": "float32"}, {"name": "block6a_se_expand/bias", "shape": [816], "dtype": "float32"}, {"name": "block6a_se_reduce/kernel", "shape": [1, 1, 816, 34], "dtype": "float32"}, {"name": "block6a_se_reduce/bias", "shape": [34], "dtype": "float32"}, {"name": "block6b_bn/gamma", "shape": [1392], "dtype": "float32"}, {"name": "block6b_bn/beta", "shape": [1392], "dtype": "float32"}, {"name": "block6b_bn/moving_mean", "shape": [1392], "dtype": "float32"}, {"name": "block6b_bn/moving_variance", "shape": [1392], "dtype": "float32"}, {"name": "block6b_dwconv/depthwise_kernel", "shape": [5, 5, 1392, 1], "dtype": "float32"}, {"name": "block6b_expand_bn/gamma", "shape": [1392], "dtype": "float32"}, {"name": "block6b_expand_bn/beta", "shape": [1392], "dtype": "float32"}, {"name": "block6b_expand_bn/moving_mean", "shape": [1392], "dtype": "float32"}, {"name": "block6b_expand_bn/moving_variance", "shape": [1392], "dtype": "float32"}, {"name": "block6b_expand_conv/kernel", "shape": [1, 1, 232, 1392], "dtype": "float32"}, {"name": "block6b_project_bn/gamma", "shape": [232], "dtype": "float32"}, {"name": "block6b_project_bn/beta", "shape": [232], "dtype": "float32"}, {"name": "block6b_project_bn/moving_mean", "shape": [232], "dtype": "float32"}, {"name": "block6b_project_bn/moving_variance", "shape": [232], "dtype": "float32"}, {"name": "block6b_project_conv/kernel", "shape": [1, 1, 1392, 232], "dtype": "float32"}, {"name": "block6b_se_expand/kernel", "shape": [1, 1, 58, 1392], "dtype": "float32"}, {"name": "block6b_se_expand/bias", "shape": [1392], "dtype": "float32"}, {"name": "block6b_se_reduce/kernel", "shape": [1, 1, 1392, 58], "dtype": "float32"}, {"name": "block6b_se_reduce/bias", "shape": [58], "dtype": "float32"}, {"name": "block6c_bn/gamma", "shape": [1392], "dtype": "float32"}, {"name": "block6c_bn/beta", "shape": [1392], "dtype": "float32"}, {"name": "block6c_bn/moving_mean", "shape": [1392], "dtype": "float32"}, {"name": "block6c_bn/moving_variance", "shape": [1392], "dtype": "float32"}, {"name": "block6c_dwconv/depthwise_kernel", "shape": [5, 5, 1392, 1], "dtype": "float32"}, {"name": "block6c_expand_bn/gamma", "shape": [1392], "dtype": "float32"}, {"name": "block6c_expand_bn/beta", "shape": [1392], "dtype": "float32"}, {"name": "block6c_expand_bn/moving_mean", "shape": [1392], "dtype": "float32"}, {"name": "block6c_expand_bn/moving_variance", "shape": [1392], "dtype": "float32"}, {"name": "block6c_expand_conv/kernel", "shape": [1, 1, 232, 1392], "dtype": "float32"}, {"name": "block6c_project_bn/gamma", "shape": [232], "dtype": "float32"}, {"name": "block6c_project_bn/beta", "shape": [232], "dtype": "float32"}, {"name": "block6c_project_bn/moving_mean", "shape": [232], "dtype": "float32"}, {"name": "block6c_project_bn/moving_variance", "shape": [232], "dtype": "float32"}, {"name": "block6c_project_conv/kernel", "shape": [1, 1, 1392, 232], "dtype": "float32"}, {"name": "block6c_se_expand/kernel", "shape": [1, 1, 58, 1392], "dtype": "float32"}, {"name": "block6c_se_expand/bias", "shape": [1392], "dtype": "float32"}, {"name": "block6c_se_reduce/kernel", "shape": [1, 1, 1392, 58], "dtype": "float32"}, {"name": "block6c_se_reduce/bias", "shape": [58], "dtype": "float32"}, {"name": "block6d_bn/gamma", "shape": [1392], "dtype": "float32"}, {"name": "block6d_bn/beta", "shape": [1392], "dtype": "float32"}, {"name": "block6d_bn/moving_mean", "shape": [1392], "dtype": "float32"}, {"name": "block6d_bn/moving_variance", "shape": [1392], "dtype": "float32"}, {"name": "block6d_dwconv/depthwise_kernel", "shape": [5, 5, 1392, 1], "dtype": "float32"}, {"name": "block6d_expand_bn/gamma", "shape": [1392], "dtype": "float32"}, {"name": "block6d_expand_bn/beta", "shape": [1392], "dtype": "float32"}, {"name": "block6d_expand_bn/moving_mean", "shape": [1392], "dtype": "float32"}, {"name": "block6d_expand_bn/moving_variance", "shape": [1392], "dtype": "float32"}, {"name": "block6d_expand_conv/kernel", "shape": [1, 1, 232, 1392], "dtype": "float32"}, {"name": "block6d_project_bn/gamma", "shape": [232], "dtype": "float32"}, {"name": "block6d_project_bn/beta", "shape": [232], "dtype": "float32"}, {"name": "block6d_project_bn/moving_mean", "shape": [232], "dtype": "float32"}, {"name": "block6d_project_bn/moving_variance", "shape": [232], "dtype": "float32"}, {"name": "block6d_project_conv/kernel", "shape": [1, 1, 1392, 232], "dtype": "float32"}, {"name": "block6d_se_expand/kernel", "shape": [1, 1, 58, 1392], "dtype": "float32"}, {"name": "block6d_se_expand/bias", "shape": [1392], "dtype": "float32"}, {"name": "block6d_se_reduce/kernel", "shape": [1, 1, 1392, 58], "dtype": "float32"}, {"name": "block6d_se_reduce/bias", "shape": [58], "dtype": "float32"}, {"name": "block6e_bn/gamma", "shape": [1392], "dtype": "float32"}, {"name": "block6e_bn/beta", "shape": [1392], "dtype": "float32"}, {"name": "block6e_bn/moving_mean", "shape": [1392], "dtype": "float32"}, {"name": "block6e_bn/moving_variance", "shape": [1392], "dtype": "float32"}, {"name": "block6e_dwconv/depthwise_kernel", "shape": [5, 5, 1392, 1], "dtype": "float32"}, {"name": "block6e_expand_bn/gamma", "shape": [1392], "dtype": "float32"}, {"name": "block6e_expand_bn/beta", "shape": [1392], "dtype": "float32"}, {"name": "block6e_expand_bn/moving_mean", "shape": [1392], "dtype": "float32"}, {"name": "block6e_expand_bn/moving_variance", "shape": [1392], "dtype": "float32"}, {"name": "block6e_expand_conv/kernel", "shape": [1, 1, 232, 1392], "dtype": "float32"}, {"name": "block6e_project_bn/gamma", "shape": [232], "dtype": "float32"}, {"name": "block6e_project_bn/beta", "shape": [232], "dtype": "float32"}, {"name": "block6e_project_bn/moving_mean", "shape": [232], "dtype": "float32"}, {"name": "block6e_project_bn/moving_variance", "shape": [232], "dtype": "float32"}, {"name": "block6e_project_conv/kernel", "shape": [1, 1, 1392, 232], "dtype": "float32"}, {"name": "block6e_se_expand/kernel", "shape": [1, 1, 58, 1392], "dtype": "float32"}, {"name": "block6e_se_expand/bias", "shape": [1392], "dtype": "float32"}, {"name": "block6e_se_reduce/kernel", "shape": [1, 1, 1392, 58], "dtype": "float32"}, {"name": "block6e_se_reduce/bias", "shape": [58], "dtype": "float32"}, {"name": "block6f_bn/gamma", "shape": [1392], "dtype": "float32"}, {"name": "block6f_bn/beta", "shape": [1392], "dtype": "float32"}, {"name": "block6f_bn/moving_mean", "shape": [1392], "dtype": "float32"}, {"name": "block6f_bn/moving_variance", "shape": [1392], "dtype": "float32"}, {"name": "block6f_dwconv/depthwise_kernel", "shape": [5, 5, 1392, 1], "dtype": "float32"}, {"name": "block6f_expand_bn/gamma", "shape": [1392], "dtype": "float32"}, {"name": "block6f_expand_bn/beta", "shape": [1392], "dtype": "float32"}, {"name": "block6f_expand_bn/moving_mean", "shape": [1392], "dtype": "float32"}, {"name": "block6f_expand_bn/moving_variance", "shape": [1392], "dtype": "float32"}, {"name": "block6f_expand_conv/kernel", "shape": [1, 1, 232, 1392], "dtype": "float32"}, {"name": "block6f_project_bn/gamma", "shape": [232], "dtype": "float32"}, {"name": "block6f_project_bn/beta", "shape": [232], "dtype": "float32"}, {"name": "block6f_project_bn/moving_mean", "shape": [232], "dtype": "float32"}, {"name": "block6f_project_bn/moving_variance", "shape": [232], "dtype": "float32"}, {"name": "block6f_project_conv/kernel", "shape": [1, 1, 1392, 232], "dtype": "float32"}, {"name": "block6f_se_expand/kernel", "shape": [1, 1, 58, 1392], "dtype": "float32"}, {"name": "block6f_se_expand/bias", "shape": [1392], "dtype": "float32"}, {"name": "block6f_se_reduce/kernel", "shape": [1, 1, 1392, 58], "dtype": "float32"}, {"name": "block6f_se_reduce/bias", "shape": [58], "dtype": "float32"}, {"name": "block7a_bn/gamma", "shape": [1392], "dtype": "float32"}, {"name": "block7a_bn/beta", "shape": [1392], "dtype": "float32"}, {"name": "block7a_bn/moving_mean", "shape": [1392], "dtype": "float32"}, {"name": "block7a_bn/moving_variance", "shape": [1392], "dtype": "float32"}, {"name": "block7a_dwconv/depthwise_kernel", "shape": [3, 3, 1392, 1], "dtype": "float32"}, {"name": "block7a_expand_bn/gamma", "shape": [1392], "dtype": "float32"}, {"name": "block7a_expand_bn/beta", "shape": [1392], "dtype": "float32"}, {"name": "block7a_expand_bn/moving_mean", "shape": [1392], "dtype": "float32"}, {"name": "block7a_expand_bn/moving_variance", "shape": [1392], "dtype": "float32"}, {"name": "block7a_expand_conv/kernel", "shape": [1, 1, 232, 1392], "dtype": "float32"}, {"name": "block7a_project_bn/gamma", "shape": [384], "dtype": "float32"}, {"name": "block7a_project_bn/beta", "shape": [384], "dtype": "float32"}, {"name": "block7a_project_bn/moving_mean", "shape": [384], "dtype": "float32"}, {"name": "block7a_project_bn/moving_variance", "shape": [384], "dtype": "float32"}, {"name": "block7a_project_conv/kernel", "shape": [1, 1, 1392, 384], "dtype": "float32"}, {"name": "block7a_se_expand/kernel", "shape": [1, 1, 58, 1392], "dtype": "float32"}, {"name": "block7a_se_expand/bias", "shape": [1392], "dtype": "float32"}, {"name": "block7a_se_reduce/kernel", "shape": [1, 1, 1392, 58], "dtype": "float32"}, {"name": "block7a_se_reduce/bias", "shape": [58], "dtype": "float32"}, {"name": "block7b_bn/gamma", "shape": [2304], "dtype": "float32"}, {"name": "block7b_bn/beta", "shape": [2304], "dtype": "float32"}, {"name": "block7b_bn/moving_mean", "shape": [2304], "dtype": "float32"}, {"name": "block7b_bn/moving_variance", "shape": [2304], "dtype": "float32"}, {"name": "block7b_dwconv/depthwise_kernel", "shape": [3, 3, 2304, 1], "dtype": "float32"}, {"name": "block7b_expand_bn/gamma", "shape": [2304], "dtype": "float32"}, {"name": "block7b_expand_bn/beta", "shape": [2304], "dtype": "float32"}, {"name": "block7b_expand_bn/moving_mean", "shape": [2304], "dtype": "float32"}, {"name": "block7b_expand_bn/moving_variance", "shape": [2304], "dtype": "float32"}, {"name": "block7b_expand_conv/kernel", "shape": [1, 1, 384, 2304], "dtype": "float32"}, {"name": "block7b_project_bn/gamma", "shape": [384], "dtype": "float32"}, {"name": "block7b_project_bn/beta", "shape": [384], "dtype": "float32"}, {"name": "block7b_project_bn/moving_mean", "shape": [384], "dtype": "float32"}, {"name": "block7b_project_bn/moving_variance", "shape": [384], "dtype": "float32"}, {"name": "block7b_project_conv/kernel", "shape": [1, 1, 2304, 384], "dtype": "float32"}, {"name": "block7b_se_expand/kernel", "shape": [1, 1, 96, 2304], "dtype": "float32"}, {"name": "block7b_se_expand/bias", "shape": [2304], "dtype": "float32"}, {"name": "block7b_se_reduce/kernel", "shape": [1, 1, 2304, 96], "dtype": "float32"}, {"name": "block7b_se_reduce/bias", "shape": [96], "dtype": "float32"}, {"name": "dense/kernel", "shape": [1536, 1024], "dtype": "float32"}, {"name": "dense/bias", "shape": [1024], "dtype": "float32"}, {"name": "dense_1/kernel", "shape": [1024, 8], "dtype": "float32"}, {"name": "dense_1/bias", "shape": [8], "dtype": "float32"}, {"name": "stem_bn/gamma", "shape": [40], "dtype": "float32"}, {"name": "stem_bn/beta", "shape": [40], "dtype": "float32"}, {"name": "stem_bn/moving_mean", "shape": [40], "dtype": "float32"}, {"name": "stem_bn/moving_variance", "shape": [40], "dtype": "float32"}, {"name": "stem_conv/kernel", "shape": [3, 3, 3, 40], "dtype": "float32"}, {"name": "top_bn/gamma", "shape": [1536], "dtype": "float32"}, {"name": "top_bn/beta", "shape": [1536], "dtype": "float32"}, {"name": "top_bn/moving_mean", "shape": [1536], "dtype": "float32"}, {"name": "top_bn/moving_variance", "shape": [1536], "dtype": "float32"}, {"name": "top_conv/kernel", "shape": [1, 1, 384, 1536], "dtype": "float32"}]}]}